node {
  name: "fifo_queue"
  op: "FIFOQueueV2"
  attr {
    key: "_output_shapes"
    value {
      list {
        shape {
        }
      }
    }
  }
  attr {
    key: "capacity"
    value {
      i: 10000
    }
  }
  attr {
    key: "component_types"
    value {
      list {
        type: DT_FLOAT
        type: DT_FLOAT
      }
    }
  }
  attr {
    key: "container"
    value {
      s: ""
    }
  }
  attr {
    key: "shapes"
    value {
      list {
        shape {
          dim {
            size: 64
          }
          dim {
            size: 64
          }
          dim {
            size: 2
          }
        }
        shape {
          dim {
            size: 64
          }
          dim {
            size: 64
          }
          dim {
            size: 1
          }
        }
      }
    }
  }
  attr {
    key: "shared_name"
    value {
      s: ""
    }
  }
}
node {
  name: "Placeholder"
  op: "Placeholder"
  attr {
    key: "_output_shapes"
    value {
      list {
        shape {
          dim {
            size: 64
          }
          dim {
            size: 64
          }
          dim {
            size: 2
          }
        }
      }
    }
  }
  attr {
    key: "dtype"
    value {
      type: DT_FLOAT
    }
  }
  attr {
    key: "shape"
    value {
      shape {
        dim {
          size: 64
        }
        dim {
          size: 64
        }
        dim {
          size: 2
        }
      }
    }
  }
}
node {
  name: "Placeholder_1"
  op: "Placeholder"
  attr {
    key: "_output_shapes"
    value {
      list {
        shape {
          dim {
            size: 64
          }
          dim {
            size: 64
          }
          dim {
            size: 1
          }
        }
      }
    }
  }
  attr {
    key: "dtype"
    value {
      type: DT_FLOAT
    }
  }
  attr {
    key: "shape"
    value {
      shape {
        dim {
          size: 64
        }
        dim {
          size: 64
        }
        dim {
          size: 1
        }
      }
    }
  }
}
node {
  name: "fifo_queue_enqueue"
  op: "QueueEnqueueV2"
  input: "fifo_queue"
  input: "Placeholder"
  input: "Placeholder_1"
  attr {
    key: "Tcomponents"
    value {
      list {
        type: DT_FLOAT
        type: DT_FLOAT
      }
    }
  }
  attr {
    key: "timeout_ms"
    value {
      i: -1
    }
  }
}
node {
  name: "fifo_queue_DequeueMany/n"
  op: "Const"
  attr {
    key: "_output_shapes"
    value {
      list {
        shape {
        }
      }
    }
  }
  attr {
    key: "dtype"
    value {
      type: DT_INT32
    }
  }
  attr {
    key: "value"
    value {
      tensor {
        dtype: DT_INT32
        tensor_shape {
        }
        int_val: 8
      }
    }
  }
}
node {
  name: "fifo_queue_DequeueMany"
  op: "QueueDequeueManyV2"
  input: "fifo_queue"
  input: "fifo_queue_DequeueMany/n"
  attr {
    key: "_output_shapes"
    value {
      list {
        shape {
          dim {
            size: 8
          }
          dim {
            size: 64
          }
          dim {
            size: 64
          }
          dim {
            size: 2
          }
        }
        shape {
          dim {
            size: 8
          }
          dim {
            size: 64
          }
          dim {
            size: 64
          }
          dim {
            size: 1
          }
        }
      }
    }
  }
  attr {
    key: "component_types"
    value {
      list {
        type: DT_FLOAT
        type: DT_FLOAT
      }
    }
  }
  attr {
    key: "timeout_ms"
    value {
      i: -1
    }
  }
}
node {
  name: "Placeholder_2"
  op: "Placeholder"
  attr {
    key: "_output_shapes"
    value {
      list {
        shape {
          dim {
            size: 8
          }
          dim {
            size: 64
          }
          dim {
            size: 64
          }
          dim {
            size: 2
          }
        }
      }
    }
  }
  attr {
    key: "dtype"
    value {
      type: DT_FLOAT
    }
  }
  attr {
    key: "shape"
    value {
      shape {
        dim {
          size: 8
        }
        dim {
          size: 64
        }
        dim {
          size: 64
        }
        dim {
          size: 2
        }
      }
    }
  }
}
node {
  name: "Placeholder_3"
  op: "Placeholder"
  attr {
    key: "_output_shapes"
    value {
      list {
        shape {
          dim {
            size: 8
          }
          dim {
            size: 64
          }
          dim {
            size: 64
          }
          dim {
            size: 1
          }
        }
      }
    }
  }
  attr {
    key: "dtype"
    value {
      type: DT_FLOAT
    }
  }
  attr {
    key: "shape"
    value {
      shape {
        dim {
          size: 8
        }
        dim {
          size: 64
        }
        dim {
          size: 64
        }
        dim {
          size: 1
        }
      }
    }
  }
}
node {
  name: "lr/initial_value"
  op: "Const"
  attr {
    key: "_output_shapes"
    value {
      list {
        shape {
        }
      }
    }
  }
  attr {
    key: "dtype"
    value {
      type: DT_FLOAT
    }
  }
  attr {
    key: "value"
    value {
      tensor {
        dtype: DT_FLOAT
        tensor_shape {
        }
        float_val: 0.004999999888241291
      }
    }
  }
}
node {
  name: "lr"
  op: "VariableV2"
  attr {
    key: "_output_shapes"
    value {
      list {
        shape {
        }
      }
    }
  }
  attr {
    key: "container"
    value {
      s: ""
    }
  }
  attr {
    key: "dtype"
    value {
      type: DT_FLOAT
    }
  }
  attr {
    key: "shape"
    value {
      shape {
      }
    }
  }
  attr {
    key: "shared_name"
    value {
      s: ""
    }
  }
}
node {
  name: "lr/Assign"
  op: "Assign"
  input: "lr"
  input: "lr/initial_value"
  attr {
    key: "T"
    value {
      type: DT_FLOAT
    }
  }
  attr {
    key: "_class"
    value {
      list {
        s: "loc:@lr"
      }
    }
  }
  attr {
    key: "_output_shapes"
    value {
      list {
        shape {
        }
      }
    }
  }
  attr {
    key: "use_locking"
    value {
      b: true
    }
  }
  attr {
    key: "validate_shape"
    value {
      b: true
    }
  }
}
node {
  name: "lr/read"
  op: "Identity"
  input: "lr"
  attr {
    key: "T"
    value {
      type: DT_FLOAT
    }
  }
  attr {
    key: "_class"
    value {
      list {
        s: "loc:@lr"
      }
    }
  }
  attr {
    key: "_output_shapes"
    value {
      list {
        shape {
        }
      }
    }
  }
}
node {
  name: "mul/y"
  op: "Const"
  attr {
    key: "_output_shapes"
    value {
      list {
        shape {
        }
      }
    }
  }
  attr {
    key: "dtype"
    value {
      type: DT_FLOAT
    }
  }
  attr {
    key: "value"
    value {
      tensor {
        dtype: DT_FLOAT
        tensor_shape {
        }
        float_val: 0.10000000149011612
      }
    }
  }
}
node {
  name: "mul"
  op: "Mul"
  input: "lr/read"
  input: "mul/y"
  attr {
    key: "T"
    value {
      type: DT_FLOAT
    }
  }
  attr {
    key: "_output_shapes"
    value {
      list {
        shape {
        }
      }
    }
  }
}
node {
  name: "Maximum/y"
  op: "Const"
  attr {
    key: "_output_shapes"
    value {
      list {
        shape {
        }
      }
    }
  }
  attr {
    key: "dtype"
    value {
      type: DT_FLOAT
    }
  }
  attr {
    key: "value"
    value {
      tensor {
        dtype: DT_FLOAT
        tensor_shape {
        }
        float_val: 9.999999747378752e-06
      }
    }
  }
}
node {
  name: "Maximum"
  op: "Maximum"
  input: "mul"
  input: "Maximum/y"
  attr {
    key: "T"
    value {
      type: DT_FLOAT
    }
  }
  attr {
    key: "_output_shapes"
    value {
      list {
        shape {
        }
      }
    }
  }
}
node {
  name: "lr_update"
  op: "Assign"
  input: "lr"
  input: "Maximum"
  attr {
    key: "T"
    value {
      type: DT_FLOAT
    }
  }
  attr {
    key: "_class"
    value {
      list {
        s: "loc:@lr"
      }
    }
  }
  attr {
    key: "_output_shapes"
    value {
      list {
        shape {
        }
      }
    }
  }
  attr {
    key: "use_locking"
    value {
      b: true
    }
  }
  attr {
    key: "validate_shape"
    value {
      b: true
    }
  }
}
node {
  name: "transpose/perm"
  op: "Const"
  attr {
    key: "_output_shapes"
    value {
      list {
        shape {
          dim {
            size: 4
          }
        }
      }
    }
  }
  attr {
    key: "dtype"
    value {
      type: DT_INT32
    }
  }
  attr {
    key: "value"
    value {
      tensor {
        dtype: DT_INT32
        tensor_shape {
          dim {
            size: 4
          }
        }
        tensor_content: "\000\000\000\000\003\000\000\000\001\000\000\000\002\000\000\000"
      }
    }
  }
}
node {
  name: "transpose"
  op: "Transpose"
  input: "fifo_queue_DequeueMany"
  input: "transpose/perm"
  attr {
    key: "T"
    value {
      type: DT_FLOAT
    }
  }
  attr {
    key: "Tperm"
    value {
      type: DT_INT32
    }
  }
  attr {
    key: "_output_shapes"
    value {
      list {
        shape {
          dim {
            size: 8
          }
          dim {
            size: 2
          }
          dim {
            size: 64
          }
          dim {
            size: 64
          }
        }
      }
    }
  }
}
node {
  name: "transpose_1/perm"
  op: "Const"
  attr {
    key: "_output_shapes"
    value {
      list {
        shape {
          dim {
            size: 4
          }
        }
      }
    }
  }
  attr {
    key: "dtype"
    value {
      type: DT_INT32
    }
  }
  attr {
    key: "value"
    value {
      tensor {
        dtype: DT_INT32
        tensor_shape {
          dim {
            size: 4
          }
        }
        tensor_content: "\000\000\000\000\003\000\000\000\001\000\000\000\002\000\000\000"
      }
    }
  }
}
node {
  name: "transpose_1"
  op: "Transpose"
  input: "fifo_queue_DequeueMany:1"
  input: "transpose_1/perm"
  attr {
    key: "T"
    value {
      type: DT_FLOAT
    }
  }
  attr {
    key: "Tperm"
    value {
      type: DT_INT32
    }
  }
  attr {
    key: "_output_shapes"
    value {
      list {
        shape {
          dim {
            size: 8
          }
          dim {
            size: 1
          }
          dim {
            size: 64
          }
          dim {
            size: 64
          }
        }
      }
    }
  }
}
node {
  name: "transpose_2/perm"
  op: "Const"
  attr {
    key: "_output_shapes"
    value {
      list {
        shape {
          dim {
            size: 4
          }
        }
      }
    }
  }
  attr {
    key: "dtype"
    value {
      type: DT_INT32
    }
  }
  attr {
    key: "value"
    value {
      tensor {
        dtype: DT_INT32
        tensor_shape {
          dim {
            size: 4
          }
        }
        tensor_content: "\000\000\000\000\003\000\000\000\001\000\000\000\002\000\000\000"
      }
    }
  }
}
node {
  name: "transpose_2"
  op: "Transpose"
  input: "Placeholder_2"
  input: "transpose_2/perm"
  attr {
    key: "T"
    value {
      type: DT_FLOAT
    }
  }
  attr {
    key: "Tperm"
    value {
      type: DT_INT32
    }
  }
  attr {
    key: "_output_shapes"
    value {
      list {
        shape {
          dim {
            size: 8
          }
          dim {
            size: 2
          }
          dim {
            size: 64
          }
          dim {
            size: 64
          }
        }
      }
    }
  }
}
node {
  name: "transpose_3/perm"
  op: "Const"
  attr {
    key: "_output_shapes"
    value {
      list {
        shape {
          dim {
            size: 4
          }
        }
      }
    }
  }
  attr {
    key: "dtype"
    value {
      type: DT_INT32
    }
  }
  attr {
    key: "value"
    value {
      tensor {
        dtype: DT_INT32
        tensor_shape {
          dim {
            size: 4
          }
        }
        tensor_content: "\000\000\000\000\003\000\000\000\001\000\000\000\002\000\000\000"
      }
    }
  }
}
node {
  name: "transpose_3"
  op: "Transpose"
  input: "Placeholder_3"
  input: "transpose_3/perm"
  attr {
    key: "T"
    value {
      type: DT_FLOAT
    }
  }
  attr {
    key: "Tperm"
    value {
      type: DT_INT32
    }
  }
  attr {
    key: "_output_shapes"
    value {
      list {
        shape {
          dim {
            size: 8
          }
          dim {
            size: 1
          }
          dim {
            size: 64
          }
          dim {
            size: 64
          }
        }
      }
    }
  }
}
node {
  name: "step/initial_value"
  op: "Const"
  attr {
    key: "_output_shapes"
    value {
      list {
        shape {
        }
      }
    }
  }
  attr {
    key: "dtype"
    value {
      type: DT_INT32
    }
  }
  attr {
    key: "value"
    value {
      tensor {
        dtype: DT_INT32
        tensor_shape {
        }
        int_val: 0
      }
    }
  }
}
node {
  name: "step"
  op: "VariableV2"
  attr {
    key: "_output_shapes"
    value {
      list {
        shape {
        }
      }
    }
  }
  attr {
    key: "container"
    value {
      s: ""
    }
  }
  attr {
    key: "dtype"
    value {
      type: DT_INT32
    }
  }
  attr {
    key: "shape"
    value {
      shape {
      }
    }
  }
  attr {
    key: "shared_name"
    value {
      s: ""
    }
  }
}
node {
  name: "step/Assign"
  op: "Assign"
  input: "step"
  input: "step/initial_value"
  attr {
    key: "T"
    value {
      type: DT_INT32
    }
  }
  attr {
    key: "_class"
    value {
      list {
        s: "loc:@step"
      }
    }
  }
  attr {
    key: "_output_shapes"
    value {
      list {
        shape {
        }
      }
    }
  }
  attr {
    key: "use_locking"
    value {
      b: true
    }
  }
  attr {
    key: "validate_shape"
    value {
      b: true
    }
  }
}
node {
  name: "step/read"
  op: "Identity"
  input: "step"
  attr {
    key: "T"
    value {
      type: DT_INT32
    }
  }
  attr {
    key: "_class"
    value {
      list {
        s: "loc:@step"
      }
    }
  }
  attr {
    key: "_output_shapes"
    value {
      list {
        shape {
        }
      }
    }
  }
}
node {
  name: "VDSR/Conv/weights/Initializer/random_uniform/shape"
  op: "Const"
  attr {
    key: "_class"
    value {
      list {
        s: "loc:@VDSR/Conv/weights"
      }
    }
  }
  attr {
    key: "_output_shapes"
    value {
      list {
        shape {
          dim {
            size: 4
          }
        }
      }
    }
  }
  attr {
    key: "dtype"
    value {
      type: DT_INT32
    }
  }
  attr {
    key: "value"
    value {
      tensor {
        dtype: DT_INT32
        tensor_shape {
          dim {
            size: 4
          }
        }
        tensor_content: "\003\000\000\000\003\000\000\000\002\000\000\000@\000\000\000"
      }
    }
  }
}
node {
  name: "VDSR/Conv/weights/Initializer/random_uniform/min"
  op: "Const"
  attr {
    key: "_class"
    value {
      list {
        s: "loc:@VDSR/Conv/weights"
      }
    }
  }
  attr {
    key: "_output_shapes"
    value {
      list {
        shape {
        }
      }
    }
  }
  attr {
    key: "dtype"
    value {
      type: DT_FLOAT
    }
  }
  attr {
    key: "value"
    value {
      tensor {
        dtype: DT_FLOAT
        tensor_shape {
        }
        float_val: -0.10050377994775772
      }
    }
  }
}
node {
  name: "VDSR/Conv/weights/Initializer/random_uniform/max"
  op: "Const"
  attr {
    key: "_class"
    value {
      list {
        s: "loc:@VDSR/Conv/weights"
      }
    }
  }
  attr {
    key: "_output_shapes"
    value {
      list {
        shape {
        }
      }
    }
  }
  attr {
    key: "dtype"
    value {
      type: DT_FLOAT
    }
  }
  attr {
    key: "value"
    value {
      tensor {
        dtype: DT_FLOAT
        tensor_shape {
        }
        float_val: 0.10050377994775772
      }
    }
  }
}
node {
  name: "VDSR/Conv/weights/Initializer/random_uniform/RandomUniform"
  op: "RandomUniform"
  input: "VDSR/Conv/weights/Initializer/random_uniform/shape"
  attr {
    key: "T"
    value {
      type: DT_INT32
    }
  }
  attr {
    key: "_class"
    value {
      list {
        s: "loc:@VDSR/Conv/weights"
      }
    }
  }
  attr {
    key: "_output_shapes"
    value {
      list {
        shape {
          dim {
            size: 3
          }
          dim {
            size: 3
          }
          dim {
            size: 2
          }
          dim {
            size: 64
          }
        }
      }
    }
  }
  attr {
    key: "dtype"
    value {
      type: DT_FLOAT
    }
  }
  attr {
    key: "seed"
    value {
      i: 123
    }
  }
  attr {
    key: "seed2"
    value {
      i: 32
    }
  }
}
node {
  name: "VDSR/Conv/weights/Initializer/random_uniform/sub"
  op: "Sub"
  input: "VDSR/Conv/weights/Initializer/random_uniform/max"
  input: "VDSR/Conv/weights/Initializer/random_uniform/min"
  attr {
    key: "T"
    value {
      type: DT_FLOAT
    }
  }
  attr {
    key: "_class"
    value {
      list {
        s: "loc:@VDSR/Conv/weights"
      }
    }
  }
  attr {
    key: "_output_shapes"
    value {
      list {
        shape {
        }
      }
    }
  }
}
node {
  name: "VDSR/Conv/weights/Initializer/random_uniform/mul"
  op: "Mul"
  input: "VDSR/Conv/weights/Initializer/random_uniform/RandomUniform"
  input: "VDSR/Conv/weights/Initializer/random_uniform/sub"
  attr {
    key: "T"
    value {
      type: DT_FLOAT
    }
  }
  attr {
    key: "_class"
    value {
      list {
        s: "loc:@VDSR/Conv/weights"
      }
    }
  }
  attr {
    key: "_output_shapes"
    value {
      list {
        shape {
          dim {
            size: 3
          }
          dim {
            size: 3
          }
          dim {
            size: 2
          }
          dim {
            size: 64
          }
        }
      }
    }
  }
}
node {
  name: "VDSR/Conv/weights/Initializer/random_uniform"
  op: "Add"
  input: "VDSR/Conv/weights/Initializer/random_uniform/mul"
  input: "VDSR/Conv/weights/Initializer/random_uniform/min"
  attr {
    key: "T"
    value {
      type: DT_FLOAT
    }
  }
  attr {
    key: "_class"
    value {
      list {
        s: "loc:@VDSR/Conv/weights"
      }
    }
  }
  attr {
    key: "_output_shapes"
    value {
      list {
        shape {
          dim {
            size: 3
          }
          dim {
            size: 3
          }
          dim {
            size: 2
          }
          dim {
            size: 64
          }
        }
      }
    }
  }
}
node {
  name: "VDSR/Conv/weights"
  op: "VariableV2"
  attr {
    key: "_class"
    value {
      list {
        s: "loc:@VDSR/Conv/weights"
      }
    }
  }
  attr {
    key: "_output_shapes"
    value {
      list {
        shape {
          dim {
            size: 3
          }
          dim {
            size: 3
          }
          dim {
            size: 2
          }
          dim {
            size: 64
          }
        }
      }
    }
  }
  attr {
    key: "container"
    value {
      s: ""
    }
  }
  attr {
    key: "dtype"
    value {
      type: DT_FLOAT
    }
  }
  attr {
    key: "shape"
    value {
      shape {
        dim {
          size: 3
        }
        dim {
          size: 3
        }
        dim {
          size: 2
        }
        dim {
          size: 64
        }
      }
    }
  }
  attr {
    key: "shared_name"
    value {
      s: ""
    }
  }
}
node {
  name: "VDSR/Conv/weights/Assign"
  op: "Assign"
  input: "VDSR/Conv/weights"
  input: "VDSR/Conv/weights/Initializer/random_uniform"
  attr {
    key: "T"
    value {
      type: DT_FLOAT
    }
  }
  attr {
    key: "_class"
    value {
      list {
        s: "loc:@VDSR/Conv/weights"
      }
    }
  }
  attr {
    key: "_output_shapes"
    value {
      list {
        shape {
          dim {
            size: 3
          }
          dim {
            size: 3
          }
          dim {
            size: 2
          }
          dim {
            size: 64
          }
        }
      }
    }
  }
  attr {
    key: "use_locking"
    value {
      b: true
    }
  }
  attr {
    key: "validate_shape"
    value {
      b: true
    }
  }
}
node {
  name: "VDSR/Conv/weights/read"
  op: "Identity"
  input: "VDSR/Conv/weights"
  attr {
    key: "T"
    value {
      type: DT_FLOAT
    }
  }
  attr {
    key: "_class"
    value {
      list {
        s: "loc:@VDSR/Conv/weights"
      }
    }
  }
  attr {
    key: "_output_shapes"
    value {
      list {
        shape {
          dim {
            size: 3
          }
          dim {
            size: 3
          }
          dim {
            size: 2
          }
          dim {
            size: 64
          }
        }
      }
    }
  }
}
node {
  name: "VDSR/Conv/biases/Initializer/zeros"
  op: "Const"
  attr {
    key: "_class"
    value {
      list {
        s: "loc:@VDSR/Conv/biases"
      }
    }
  }
  attr {
    key: "_output_shapes"
    value {
      list {
        shape {
          dim {
            size: 64
          }
        }
      }
    }
  }
  attr {
    key: "dtype"
    value {
      type: DT_FLOAT
    }
  }
  attr {
    key: "value"
    value {
      tensor {
        dtype: DT_FLOAT
        tensor_shape {
          dim {
            size: 64
          }
        }
        float_val: 0.0
      }
    }
  }
}
node {
  name: "VDSR/Conv/biases"
  op: "VariableV2"
  attr {
    key: "_class"
    value {
      list {
        s: "loc:@VDSR/Conv/biases"
      }
    }
  }
  attr {
    key: "_output_shapes"
    value {
      list {
        shape {
          dim {
            size: 64
          }
        }
      }
    }
  }
  attr {
    key: "container"
    value {
      s: ""
    }
  }
  attr {
    key: "dtype"
    value {
      type: DT_FLOAT
    }
  }
  attr {
    key: "shape"
    value {
      shape {
        dim {
          size: 64
        }
      }
    }
  }
  attr {
    key: "shared_name"
    value {
      s: ""
    }
  }
}
node {
  name: "VDSR/Conv/biases/Assign"
  op: "Assign"
  input: "VDSR/Conv/biases"
  input: "VDSR/Conv/biases/Initializer/zeros"
  attr {
    key: "T"
    value {
      type: DT_FLOAT
    }
  }
  attr {
    key: "_class"
    value {
      list {
        s: "loc:@VDSR/Conv/biases"
      }
    }
  }
  attr {
    key: "_output_shapes"
    value {
      list {
        shape {
          dim {
            size: 64
          }
        }
      }
    }
  }
  attr {
    key: "use_locking"
    value {
      b: true
    }
  }
  attr {
    key: "validate_shape"
    value {
      b: true
    }
  }
}
node {
  name: "VDSR/Conv/biases/read"
  op: "Identity"
  input: "VDSR/Conv/biases"
  attr {
    key: "T"
    value {
      type: DT_FLOAT
    }
  }
  attr {
    key: "_class"
    value {
      list {
        s: "loc:@VDSR/Conv/biases"
      }
    }
  }
  attr {
    key: "_output_shapes"
    value {
      list {
        shape {
          dim {
            size: 64
          }
        }
      }
    }
  }
}
node {
  name: "VDSR/Conv/dilation_rate"
  op: "Const"
  attr {
    key: "_output_shapes"
    value {
      list {
        shape {
          dim {
            size: 2
          }
        }
      }
    }
  }
  attr {
    key: "dtype"
    value {
      type: DT_INT32
    }
  }
  attr {
    key: "value"
    value {
      tensor {
        dtype: DT_INT32
        tensor_shape {
          dim {
            size: 2
          }
        }
        tensor_content: "\001\000\000\000\001\000\000\000"
      }
    }
  }
}
node {
  name: "VDSR/Conv/Conv2D"
  op: "Conv2D"
  input: "transpose"
  input: "VDSR/Conv/weights/read"
  attr {
    key: "T"
    value {
      type: DT_FLOAT
    }
  }
  attr {
    key: "_output_shapes"
    value {
      list {
        shape {
          dim {
            size: 8
          }
          dim {
            size: 64
          }
          dim {
            size: 64
          }
          dim {
            size: 64
          }
        }
      }
    }
  }
  attr {
    key: "data_format"
    value {
      s: "NCHW"
    }
  }
  attr {
    key: "dilations"
    value {
      list {
        i: 1
        i: 1
        i: 1
        i: 1
      }
    }
  }
  attr {
    key: "explicit_paddings"
    value {
      list {
      }
    }
  }
  attr {
    key: "padding"
    value {
      s: "SAME"
    }
  }
  attr {
    key: "strides"
    value {
      list {
        i: 1
        i: 1
        i: 1
        i: 1
      }
    }
  }
  attr {
    key: "use_cudnn_on_gpu"
    value {
      b: true
    }
  }
}
node {
  name: "VDSR/Conv/BiasAdd"
  op: "BiasAdd"
  input: "VDSR/Conv/Conv2D"
  input: "VDSR/Conv/biases/read"
  attr {
    key: "T"
    value {
      type: DT_FLOAT
    }
  }
  attr {
    key: "_output_shapes"
    value {
      list {
        shape {
          dim {
            size: 8
          }
          dim {
            size: 64
          }
          dim {
            size: 64
          }
          dim {
            size: 64
          }
        }
      }
    }
  }
  attr {
    key: "data_format"
    value {
      s: "NCHW"
    }
  }
}
node {
  name: "VDSR/Conv/Relu"
  op: "Relu"
  input: "VDSR/Conv/BiasAdd"
  attr {
    key: "T"
    value {
      type: DT_FLOAT
    }
  }
  attr {
    key: "_output_shapes"
    value {
      list {
        shape {
          dim {
            size: 8
          }
          dim {
            size: 64
          }
          dim {
            size: 64
          }
          dim {
            size: 64
          }
        }
      }
    }
  }
}
node {
  name: "VDSR/BatchNorm/beta/Initializer/zeros"
  op: "Const"
  attr {
    key: "_class"
    value {
      list {
        s: "loc:@VDSR/BatchNorm/beta"
      }
    }
  }
  attr {
    key: "_output_shapes"
    value {
      list {
        shape {
          dim {
            size: 64
          }
        }
      }
    }
  }
  attr {
    key: "dtype"
    value {
      type: DT_FLOAT
    }
  }
  attr {
    key: "value"
    value {
      tensor {
        dtype: DT_FLOAT
        tensor_shape {
          dim {
            size: 64
          }
        }
        float_val: 0.0
      }
    }
  }
}
node {
  name: "VDSR/BatchNorm/beta"
  op: "VariableV2"
  attr {
    key: "_class"
    value {
      list {
        s: "loc:@VDSR/BatchNorm/beta"
      }
    }
  }
  attr {
    key: "_output_shapes"
    value {
      list {
        shape {
          dim {
            size: 64
          }
        }
      }
    }
  }
  attr {
    key: "container"
    value {
      s: ""
    }
  }
  attr {
    key: "dtype"
    value {
      type: DT_FLOAT
    }
  }
  attr {
    key: "shape"
    value {
      shape {
        dim {
          size: 64
        }
      }
    }
  }
  attr {
    key: "shared_name"
    value {
      s: ""
    }
  }
}
node {
  name: "VDSR/BatchNorm/beta/Assign"
  op: "Assign"
  input: "VDSR/BatchNorm/beta"
  input: "VDSR/BatchNorm/beta/Initializer/zeros"
  attr {
    key: "T"
    value {
      type: DT_FLOAT
    }
  }
  attr {
    key: "_class"
    value {
      list {
        s: "loc:@VDSR/BatchNorm/beta"
      }
    }
  }
  attr {
    key: "_output_shapes"
    value {
      list {
        shape {
          dim {
            size: 64
          }
        }
      }
    }
  }
  attr {
    key: "use_locking"
    value {
      b: true
    }
  }
  attr {
    key: "validate_shape"
    value {
      b: true
    }
  }
}
node {
  name: "VDSR/BatchNorm/beta/read"
  op: "Identity"
  input: "VDSR/BatchNorm/beta"
  attr {
    key: "T"
    value {
      type: DT_FLOAT
    }
  }
  attr {
    key: "_class"
    value {
      list {
        s: "loc:@VDSR/BatchNorm/beta"
      }
    }
  }
  attr {
    key: "_output_shapes"
    value {
      list {
        shape {
          dim {
            size: 64
          }
        }
      }
    }
  }
}
node {
  name: "VDSR/BatchNorm/gamma/Initializer/ones"
  op: "Const"
  attr {
    key: "_class"
    value {
      list {
        s: "loc:@VDSR/BatchNorm/gamma"
      }
    }
  }
  attr {
    key: "_output_shapes"
    value {
      list {
        shape {
          dim {
            size: 64
          }
        }
      }
    }
  }
  attr {
    key: "dtype"
    value {
      type: DT_FLOAT
    }
  }
  attr {
    key: "value"
    value {
      tensor {
        dtype: DT_FLOAT
        tensor_shape {
          dim {
            size: 64
          }
        }
        float_val: 1.0
      }
    }
  }
}
node {
  name: "VDSR/BatchNorm/gamma"
  op: "VariableV2"
  attr {
    key: "_class"
    value {
      list {
        s: "loc:@VDSR/BatchNorm/gamma"
      }
    }
  }
  attr {
    key: "_output_shapes"
    value {
      list {
        shape {
          dim {
            size: 64
          }
        }
      }
    }
  }
  attr {
    key: "container"
    value {
      s: ""
    }
  }
  attr {
    key: "dtype"
    value {
      type: DT_FLOAT
    }
  }
  attr {
    key: "shape"
    value {
      shape {
        dim {
          size: 64
        }
      }
    }
  }
  attr {
    key: "shared_name"
    value {
      s: ""
    }
  }
}
node {
  name: "VDSR/BatchNorm/gamma/Assign"
  op: "Assign"
  input: "VDSR/BatchNorm/gamma"
  input: "VDSR/BatchNorm/gamma/Initializer/ones"
  attr {
    key: "T"
    value {
      type: DT_FLOAT
    }
  }
  attr {
    key: "_class"
    value {
      list {
        s: "loc:@VDSR/BatchNorm/gamma"
      }
    }
  }
  attr {
    key: "_output_shapes"
    value {
      list {
        shape {
          dim {
            size: 64
          }
        }
      }
    }
  }
  attr {
    key: "use_locking"
    value {
      b: true
    }
  }
  attr {
    key: "validate_shape"
    value {
      b: true
    }
  }
}
node {
  name: "VDSR/BatchNorm/gamma/read"
  op: "Identity"
  input: "VDSR/BatchNorm/gamma"
  attr {
    key: "T"
    value {
      type: DT_FLOAT
    }
  }
  attr {
    key: "_class"
    value {
      list {
        s: "loc:@VDSR/BatchNorm/gamma"
      }
    }
  }
  attr {
    key: "_output_shapes"
    value {
      list {
        shape {
          dim {
            size: 64
          }
        }
      }
    }
  }
}
node {
  name: "VDSR/BatchNorm/moving_mean/Initializer/zeros"
  op: "Const"
  attr {
    key: "_class"
    value {
      list {
        s: "loc:@VDSR/BatchNorm/moving_mean"
      }
    }
  }
  attr {
    key: "_output_shapes"
    value {
      list {
        shape {
          dim {
            size: 64
          }
        }
      }
    }
  }
  attr {
    key: "dtype"
    value {
      type: DT_FLOAT
    }
  }
  attr {
    key: "value"
    value {
      tensor {
        dtype: DT_FLOAT
        tensor_shape {
          dim {
            size: 64
          }
        }
        float_val: 0.0
      }
    }
  }
}
node {
  name: "VDSR/BatchNorm/moving_mean"
  op: "VariableV2"
  attr {
    key: "_class"
    value {
      list {
        s: "loc:@VDSR/BatchNorm/moving_mean"
      }
    }
  }
  attr {
    key: "_output_shapes"
    value {
      list {
        shape {
          dim {
            size: 64
          }
        }
      }
    }
  }
  attr {
    key: "container"
    value {
      s: ""
    }
  }
  attr {
    key: "dtype"
    value {
      type: DT_FLOAT
    }
  }
  attr {
    key: "shape"
    value {
      shape {
        dim {
          size: 64
        }
      }
    }
  }
  attr {
    key: "shared_name"
    value {
      s: ""
    }
  }
}
node {
  name: "VDSR/BatchNorm/moving_mean/Assign"
  op: "Assign"
  input: "VDSR/BatchNorm/moving_mean"
  input: "VDSR/BatchNorm/moving_mean/Initializer/zeros"
  attr {
    key: "T"
    value {
      type: DT_FLOAT
    }
  }
  attr {
    key: "_class"
    value {
      list {
        s: "loc:@VDSR/BatchNorm/moving_mean"
      }
    }
  }
  attr {
    key: "_output_shapes"
    value {
      list {
        shape {
          dim {
            size: 64
          }
        }
      }
    }
  }
  attr {
    key: "use_locking"
    value {
      b: true
    }
  }
  attr {
    key: "validate_shape"
    value {
      b: true
    }
  }
}
node {
  name: "VDSR/BatchNorm/moving_mean/read"
  op: "Identity"
  input: "VDSR/BatchNorm/moving_mean"
  attr {
    key: "T"
    value {
      type: DT_FLOAT
    }
  }
  attr {
    key: "_class"
    value {
      list {
        s: "loc:@VDSR/BatchNorm/moving_mean"
      }
    }
  }
  attr {
    key: "_output_shapes"
    value {
      list {
        shape {
          dim {
            size: 64
          }
        }
      }
    }
  }
}
node {
  name: "VDSR/BatchNorm/moving_variance/Initializer/ones"
  op: "Const"
  attr {
    key: "_class"
    value {
      list {
        s: "loc:@VDSR/BatchNorm/moving_variance"
      }
    }
  }
  attr {
    key: "_output_shapes"
    value {
      list {
        shape {
          dim {
            size: 64
          }
        }
      }
    }
  }
  attr {
    key: "dtype"
    value {
      type: DT_FLOAT
    }
  }
  attr {
    key: "value"
    value {
      tensor {
        dtype: DT_FLOAT
        tensor_shape {
          dim {
            size: 64
          }
        }
        float_val: 1.0
      }
    }
  }
}
node {
  name: "VDSR/BatchNorm/moving_variance"
  op: "VariableV2"
  attr {
    key: "_class"
    value {
      list {
        s: "loc:@VDSR/BatchNorm/moving_variance"
      }
    }
  }
  attr {
    key: "_output_shapes"
    value {
      list {
        shape {
          dim {
            size: 64
          }
        }
      }
    }
  }
  attr {
    key: "container"
    value {
      s: ""
    }
  }
  attr {
    key: "dtype"
    value {
      type: DT_FLOAT
    }
  }
  attr {
    key: "shape"
    value {
      shape {
        dim {
          size: 64
        }
      }
    }
  }
  attr {
    key: "shared_name"
    value {
      s: ""
    }
  }
}
node {
  name: "VDSR/BatchNorm/moving_variance/Assign"
  op: "Assign"
  input: "VDSR/BatchNorm/moving_variance"
  input: "VDSR/BatchNorm/moving_variance/Initializer/ones"
  attr {
    key: "T"
    value {
      type: DT_FLOAT
    }
  }
  attr {
    key: "_class"
    value {
      list {
        s: "loc:@VDSR/BatchNorm/moving_variance"
      }
    }
  }
  attr {
    key: "_output_shapes"
    value {
      list {
        shape {
          dim {
            size: 64
          }
        }
      }
    }
  }
  attr {
    key: "use_locking"
    value {
      b: true
    }
  }
  attr {
    key: "validate_shape"
    value {
      b: true
    }
  }
}
node {
  name: "VDSR/BatchNorm/moving_variance/read"
  op: "Identity"
  input: "VDSR/BatchNorm/moving_variance"
  attr {
    key: "T"
    value {
      type: DT_FLOAT
    }
  }
  attr {
    key: "_class"
    value {
      list {
        s: "loc:@VDSR/BatchNorm/moving_variance"
      }
    }
  }
  attr {
    key: "_output_shapes"
    value {
      list {
        shape {
          dim {
            size: 64
          }
        }
      }
    }
  }
}
node {
  name: "VDSR/BatchNorm/Const"
  op: "Const"
  attr {
    key: "_output_shapes"
    value {
      list {
        shape {
          dim {
          }
        }
      }
    }
  }
  attr {
    key: "dtype"
    value {
      type: DT_FLOAT
    }
  }
  attr {
    key: "value"
    value {
      tensor {
        dtype: DT_FLOAT
        tensor_shape {
          dim {
          }
        }
      }
    }
  }
}
node {
  name: "VDSR/BatchNorm/Const_1"
  op: "Const"
  attr {
    key: "_output_shapes"
    value {
      list {
        shape {
          dim {
          }
        }
      }
    }
  }
  attr {
    key: "dtype"
    value {
      type: DT_FLOAT
    }
  }
  attr {
    key: "value"
    value {
      tensor {
        dtype: DT_FLOAT
        tensor_shape {
          dim {
          }
        }
      }
    }
  }
}
node {
  name: "VDSR/BatchNorm/FusedBatchNormV3"
  op: "FusedBatchNormV3"
  input: "VDSR/Conv/Relu"
  input: "VDSR/BatchNorm/gamma/read"
  input: "VDSR/BatchNorm/beta/read"
  input: "VDSR/BatchNorm/Const"
  input: "VDSR/BatchNorm/Const_1"
  attr {
    key: "T"
    value {
      type: DT_FLOAT
    }
  }
  attr {
    key: "U"
    value {
      type: DT_FLOAT
    }
  }
  attr {
    key: "_output_shapes"
    value {
      list {
        shape {
          dim {
            size: 8
          }
          dim {
            size: 64
          }
          dim {
            size: 64
          }
          dim {
            size: 64
          }
        }
        shape {
          dim {
            size: 64
          }
        }
        shape {
          dim {
            size: 64
          }
        }
        shape {
          dim {
            size: 64
          }
        }
        shape {
          dim {
            size: 64
          }
        }
        shape {
          unknown_rank: true
        }
      }
    }
  }
  attr {
    key: "data_format"
    value {
      s: "NCHW"
    }
  }
  attr {
    key: "epsilon"
    value {
      f: 1.0009999641624745e-05
    }
  }
  attr {
    key: "is_training"
    value {
      b: true
    }
  }
}
node {
  name: "VDSR/BatchNorm/AssignMovingAvg/decay"
  op: "Const"
  attr {
    key: "_output_shapes"
    value {
      list {
        shape {
        }
      }
    }
  }
  attr {
    key: "dtype"
    value {
      type: DT_FLOAT
    }
  }
  attr {
    key: "value"
    value {
      tensor {
        dtype: DT_FLOAT
        tensor_shape {
        }
        float_val: 0.10000000149011612
      }
    }
  }
}
node {
  name: "VDSR/BatchNorm/AssignMovingAvg/sub"
  op: "Sub"
  input: "VDSR/BatchNorm/moving_mean/read"
  input: "VDSR/BatchNorm/FusedBatchNormV3:1"
  attr {
    key: "T"
    value {
      type: DT_FLOAT
    }
  }
  attr {
    key: "_output_shapes"
    value {
      list {
        shape {
          dim {
            size: 64
          }
        }
      }
    }
  }
}
node {
  name: "VDSR/BatchNorm/AssignMovingAvg/mul"
  op: "Mul"
  input: "VDSR/BatchNorm/AssignMovingAvg/sub"
  input: "VDSR/BatchNorm/AssignMovingAvg/decay"
  attr {
    key: "T"
    value {
      type: DT_FLOAT
    }
  }
  attr {
    key: "_output_shapes"
    value {
      list {
        shape {
          dim {
            size: 64
          }
        }
      }
    }
  }
}
node {
  name: "VDSR/BatchNorm/AssignMovingAvg"
  op: "AssignSub"
  input: "VDSR/BatchNorm/moving_mean"
  input: "VDSR/BatchNorm/AssignMovingAvg/mul"
  attr {
    key: "T"
    value {
      type: DT_FLOAT
    }
  }
  attr {
    key: "_class"
    value {
      list {
        s: "loc:@VDSR/BatchNorm/moving_mean"
      }
    }
  }
  attr {
    key: "_output_shapes"
    value {
      list {
        shape {
          dim {
            size: 64
          }
        }
      }
    }
  }
  attr {
    key: "use_locking"
    value {
      b: false
    }
  }
}
node {
  name: "VDSR/BatchNorm/AssignMovingAvg_1/decay"
  op: "Const"
  attr {
    key: "_output_shapes"
    value {
      list {
        shape {
        }
      }
    }
  }
  attr {
    key: "dtype"
    value {
      type: DT_FLOAT
    }
  }
  attr {
    key: "value"
    value {
      tensor {
        dtype: DT_FLOAT
        tensor_shape {
        }
        float_val: 0.10000000149011612
      }
    }
  }
}
node {
  name: "VDSR/BatchNorm/AssignMovingAvg_1/sub"
  op: "Sub"
  input: "VDSR/BatchNorm/moving_variance/read"
  input: "VDSR/BatchNorm/FusedBatchNormV3:2"
  attr {
    key: "T"
    value {
      type: DT_FLOAT
    }
  }
  attr {
    key: "_output_shapes"
    value {
      list {
        shape {
          dim {
            size: 64
          }
        }
      }
    }
  }
}
node {
  name: "VDSR/BatchNorm/AssignMovingAvg_1/mul"
  op: "Mul"
  input: "VDSR/BatchNorm/AssignMovingAvg_1/sub"
  input: "VDSR/BatchNorm/AssignMovingAvg_1/decay"
  attr {
    key: "T"
    value {
      type: DT_FLOAT
    }
  }
  attr {
    key: "_output_shapes"
    value {
      list {
        shape {
          dim {
            size: 64
          }
        }
      }
    }
  }
}
node {
  name: "VDSR/BatchNorm/AssignMovingAvg_1"
  op: "AssignSub"
  input: "VDSR/BatchNorm/moving_variance"
  input: "VDSR/BatchNorm/AssignMovingAvg_1/mul"
  attr {
    key: "T"
    value {
      type: DT_FLOAT
    }
  }
  attr {
    key: "_class"
    value {
      list {
        s: "loc:@VDSR/BatchNorm/moving_variance"
      }
    }
  }
  attr {
    key: "_output_shapes"
    value {
      list {
        shape {
          dim {
            size: 64
          }
        }
      }
    }
  }
  attr {
    key: "use_locking"
    value {
      b: false
    }
  }
}
node {
  name: "VDSR/BatchNorm/Identity"
  op: "Identity"
  input: "VDSR/BatchNorm/FusedBatchNormV3"
  input: "^VDSR/BatchNorm/AssignMovingAvg"
  input: "^VDSR/BatchNorm/AssignMovingAvg_1"
  attr {
    key: "T"
    value {
      type: DT_FLOAT
    }
  }
  attr {
    key: "_output_shapes"
    value {
      list {
        shape {
          dim {
            size: 8
          }
          dim {
            size: 64
          }
          dim {
            size: 64
          }
          dim {
            size: 64
          }
        }
      }
    }
  }
}
node {
  name: "VDSR/BatchNorm/Relu"
  op: "Relu"
  input: "VDSR/BatchNorm/Identity"
  attr {
    key: "T"
    value {
      type: DT_FLOAT
    }
  }
  attr {
    key: "_output_shapes"
    value {
      list {
        shape {
          dim {
            size: 8
          }
          dim {
            size: 64
          }
          dim {
            size: 64
          }
          dim {
            size: 64
          }
        }
      }
    }
  }
}
node {
  name: "VDSR/Conv_1/weights/Initializer/random_uniform/shape"
  op: "Const"
  attr {
    key: "_class"
    value {
      list {
        s: "loc:@VDSR/Conv_1/weights"
      }
    }
  }
  attr {
    key: "_output_shapes"
    value {
      list {
        shape {
          dim {
            size: 4
          }
        }
      }
    }
  }
  attr {
    key: "dtype"
    value {
      type: DT_INT32
    }
  }
  attr {
    key: "value"
    value {
      tensor {
        dtype: DT_INT32
        tensor_shape {
          dim {
            size: 4
          }
        }
        tensor_content: "\003\000\000\000\003\000\000\000@\000\000\000@\000\000\000"
      }
    }
  }
}
node {
  name: "VDSR/Conv_1/weights/Initializer/random_uniform/min"
  op: "Const"
  attr {
    key: "_class"
    value {
      list {
        s: "loc:@VDSR/Conv_1/weights"
      }
    }
  }
  attr {
    key: "_output_shapes"
    value {
      list {
        shape {
        }
      }
    }
  }
  attr {
    key: "dtype"
    value {
      type: DT_FLOAT
    }
  }
  attr {
    key: "value"
    value {
      tensor {
        dtype: DT_FLOAT
        tensor_shape {
        }
        float_val: -0.07216878235340118
      }
    }
  }
}
node {
  name: "VDSR/Conv_1/weights/Initializer/random_uniform/max"
  op: "Const"
  attr {
    key: "_class"
    value {
      list {
        s: "loc:@VDSR/Conv_1/weights"
      }
    }
  }
  attr {
    key: "_output_shapes"
    value {
      list {
        shape {
        }
      }
    }
  }
  attr {
    key: "dtype"
    value {
      type: DT_FLOAT
    }
  }
  attr {
    key: "value"
    value {
      tensor {
        dtype: DT_FLOAT
        tensor_shape {
        }
        float_val: 0.07216878235340118
      }
    }
  }
}
node {
  name: "VDSR/Conv_1/weights/Initializer/random_uniform/RandomUniform"
  op: "RandomUniform"
  input: "VDSR/Conv_1/weights/Initializer/random_uniform/shape"
  attr {
    key: "T"
    value {
      type: DT_INT32
    }
  }
  attr {
    key: "_class"
    value {
      list {
        s: "loc:@VDSR/Conv_1/weights"
      }
    }
  }
  attr {
    key: "_output_shapes"
    value {
      list {
        shape {
          dim {
            size: 3
          }
          dim {
            size: 3
          }
          dim {
            size: 64
          }
          dim {
            size: 64
          }
        }
      }
    }
  }
  attr {
    key: "dtype"
    value {
      type: DT_FLOAT
    }
  }
  attr {
    key: "seed"
    value {
      i: 123
    }
  }
  attr {
    key: "seed2"
    value {
      i: 79
    }
  }
}
node {
  name: "VDSR/Conv_1/weights/Initializer/random_uniform/sub"
  op: "Sub"
  input: "VDSR/Conv_1/weights/Initializer/random_uniform/max"
  input: "VDSR/Conv_1/weights/Initializer/random_uniform/min"
  attr {
    key: "T"
    value {
      type: DT_FLOAT
    }
  }
  attr {
    key: "_class"
    value {
      list {
        s: "loc:@VDSR/Conv_1/weights"
      }
    }
  }
  attr {
    key: "_output_shapes"
    value {
      list {
        shape {
        }
      }
    }
  }
}
node {
  name: "VDSR/Conv_1/weights/Initializer/random_uniform/mul"
  op: "Mul"
  input: "VDSR/Conv_1/weights/Initializer/random_uniform/RandomUniform"
  input: "VDSR/Conv_1/weights/Initializer/random_uniform/sub"
  attr {
    key: "T"
    value {
      type: DT_FLOAT
    }
  }
  attr {
    key: "_class"
    value {
      list {
        s: "loc:@VDSR/Conv_1/weights"
      }
    }
  }
  attr {
    key: "_output_shapes"
    value {
      list {
        shape {
          dim {
            size: 3
          }
          dim {
            size: 3
          }
          dim {
            size: 64
          }
          dim {
            size: 64
          }
        }
      }
    }
  }
}
node {
  name: "VDSR/Conv_1/weights/Initializer/random_uniform"
  op: "Add"
  input: "VDSR/Conv_1/weights/Initializer/random_uniform/mul"
  input: "VDSR/Conv_1/weights/Initializer/random_uniform/min"
  attr {
    key: "T"
    value {
      type: DT_FLOAT
    }
  }
  attr {
    key: "_class"
    value {
      list {
        s: "loc:@VDSR/Conv_1/weights"
      }
    }
  }
  attr {
    key: "_output_shapes"
    value {
      list {
        shape {
          dim {
            size: 3
          }
          dim {
            size: 3
          }
          dim {
            size: 64
          }
          dim {
            size: 64
          }
        }
      }
    }
  }
}
node {
  name: "VDSR/Conv_1/weights"
  op: "VariableV2"
  attr {
    key: "_class"
    value {
      list {
        s: "loc:@VDSR/Conv_1/weights"
      }
    }
  }
  attr {
    key: "_output_shapes"
    value {
      list {
        shape {
          dim {
            size: 3
          }
          dim {
            size: 3
          }
          dim {
            size: 64
          }
          dim {
            size: 64
          }
        }
      }
    }
  }
  attr {
    key: "container"
    value {
      s: ""
    }
  }
  attr {
    key: "dtype"
    value {
      type: DT_FLOAT
    }
  }
  attr {
    key: "shape"
    value {
      shape {
        dim {
          size: 3
        }
        dim {
          size: 3
        }
        dim {
          size: 64
        }
        dim {
          size: 64
        }
      }
    }
  }
  attr {
    key: "shared_name"
    value {
      s: ""
    }
  }
}
node {
  name: "VDSR/Conv_1/weights/Assign"
  op: "Assign"
  input: "VDSR/Conv_1/weights"
  input: "VDSR/Conv_1/weights/Initializer/random_uniform"
  attr {
    key: "T"
    value {
      type: DT_FLOAT
    }
  }
  attr {
    key: "_class"
    value {
      list {
        s: "loc:@VDSR/Conv_1/weights"
      }
    }
  }
  attr {
    key: "_output_shapes"
    value {
      list {
        shape {
          dim {
            size: 3
          }
          dim {
            size: 3
          }
          dim {
            size: 64
          }
          dim {
            size: 64
          }
        }
      }
    }
  }
  attr {
    key: "use_locking"
    value {
      b: true
    }
  }
  attr {
    key: "validate_shape"
    value {
      b: true
    }
  }
}
node {
  name: "VDSR/Conv_1/weights/read"
  op: "Identity"
  input: "VDSR/Conv_1/weights"
  attr {
    key: "T"
    value {
      type: DT_FLOAT
    }
  }
  attr {
    key: "_class"
    value {
      list {
        s: "loc:@VDSR/Conv_1/weights"
      }
    }
  }
  attr {
    key: "_output_shapes"
    value {
      list {
        shape {
          dim {
            size: 3
          }
          dim {
            size: 3
          }
          dim {
            size: 64
          }
          dim {
            size: 64
          }
        }
      }
    }
  }
}
node {
  name: "VDSR/Conv_1/biases/Initializer/zeros"
  op: "Const"
  attr {
    key: "_class"
    value {
      list {
        s: "loc:@VDSR/Conv_1/biases"
      }
    }
  }
  attr {
    key: "_output_shapes"
    value {
      list {
        shape {
          dim {
            size: 64
          }
        }
      }
    }
  }
  attr {
    key: "dtype"
    value {
      type: DT_FLOAT
    }
  }
  attr {
    key: "value"
    value {
      tensor {
        dtype: DT_FLOAT
        tensor_shape {
          dim {
            size: 64
          }
        }
        float_val: 0.0
      }
    }
  }
}
node {
  name: "VDSR/Conv_1/biases"
  op: "VariableV2"
  attr {
    key: "_class"
    value {
      list {
        s: "loc:@VDSR/Conv_1/biases"
      }
    }
  }
  attr {
    key: "_output_shapes"
    value {
      list {
        shape {
          dim {
            size: 64
          }
        }
      }
    }
  }
  attr {
    key: "container"
    value {
      s: ""
    }
  }
  attr {
    key: "dtype"
    value {
      type: DT_FLOAT
    }
  }
  attr {
    key: "shape"
    value {
      shape {
        dim {
          size: 64
        }
      }
    }
  }
  attr {
    key: "shared_name"
    value {
      s: ""
    }
  }
}
node {
  name: "VDSR/Conv_1/biases/Assign"
  op: "Assign"
  input: "VDSR/Conv_1/biases"
  input: "VDSR/Conv_1/biases/Initializer/zeros"
  attr {
    key: "T"
    value {
      type: DT_FLOAT
    }
  }
  attr {
    key: "_class"
    value {
      list {
        s: "loc:@VDSR/Conv_1/biases"
      }
    }
  }
  attr {
    key: "_output_shapes"
    value {
      list {
        shape {
          dim {
            size: 64
          }
        }
      }
    }
  }
  attr {
    key: "use_locking"
    value {
      b: true
    }
  }
  attr {
    key: "validate_shape"
    value {
      b: true
    }
  }
}
node {
  name: "VDSR/Conv_1/biases/read"
  op: "Identity"
  input: "VDSR/Conv_1/biases"
  attr {
    key: "T"
    value {
      type: DT_FLOAT
    }
  }
  attr {
    key: "_class"
    value {
      list {
        s: "loc:@VDSR/Conv_1/biases"
      }
    }
  }
  attr {
    key: "_output_shapes"
    value {
      list {
        shape {
          dim {
            size: 64
          }
        }
      }
    }
  }
}
node {
  name: "VDSR/Conv_1/dilation_rate"
  op: "Const"
  attr {
    key: "_output_shapes"
    value {
      list {
        shape {
          dim {
            size: 2
          }
        }
      }
    }
  }
  attr {
    key: "dtype"
    value {
      type: DT_INT32
    }
  }
  attr {
    key: "value"
    value {
      tensor {
        dtype: DT_INT32
        tensor_shape {
          dim {
            size: 2
          }
        }
        tensor_content: "\001\000\000\000\001\000\000\000"
      }
    }
  }
}
node {
  name: "VDSR/Conv_1/Conv2D"
  op: "Conv2D"
  input: "VDSR/BatchNorm/Relu"
  input: "VDSR/Conv_1/weights/read"
  attr {
    key: "T"
    value {
      type: DT_FLOAT
    }
  }
  attr {
    key: "_output_shapes"
    value {
      list {
        shape {
          dim {
            size: 8
          }
          dim {
            size: 64
          }
          dim {
            size: 64
          }
          dim {
            size: 64
          }
        }
      }
    }
  }
  attr {
    key: "data_format"
    value {
      s: "NCHW"
    }
  }
  attr {
    key: "dilations"
    value {
      list {
        i: 1
        i: 1
        i: 1
        i: 1
      }
    }
  }
  attr {
    key: "explicit_paddings"
    value {
      list {
      }
    }
  }
  attr {
    key: "padding"
    value {
      s: "SAME"
    }
  }
  attr {
    key: "strides"
    value {
      list {
        i: 1
        i: 1
        i: 1
        i: 1
      }
    }
  }
  attr {
    key: "use_cudnn_on_gpu"
    value {
      b: true
    }
  }
}
node {
  name: "VDSR/Conv_1/BiasAdd"
  op: "BiasAdd"
  input: "VDSR/Conv_1/Conv2D"
  input: "VDSR/Conv_1/biases/read"
  attr {
    key: "T"
    value {
      type: DT_FLOAT
    }
  }
  attr {
    key: "_output_shapes"
    value {
      list {
        shape {
          dim {
            size: 8
          }
          dim {
            size: 64
          }
          dim {
            size: 64
          }
          dim {
            size: 64
          }
        }
      }
    }
  }
  attr {
    key: "data_format"
    value {
      s: "NCHW"
    }
  }
}
node {
  name: "VDSR/Conv_1/Relu"
  op: "Relu"
  input: "VDSR/Conv_1/BiasAdd"
  attr {
    key: "T"
    value {
      type: DT_FLOAT
    }
  }
  attr {
    key: "_output_shapes"
    value {
      list {
        shape {
          dim {
            size: 8
          }
          dim {
            size: 64
          }
          dim {
            size: 64
          }
          dim {
            size: 64
          }
        }
      }
    }
  }
}
node {
  name: "VDSR/BatchNorm_1/beta/Initializer/zeros"
  op: "Const"
  attr {
    key: "_class"
    value {
      list {
        s: "loc:@VDSR/BatchNorm_1/beta"
      }
    }
  }
  attr {
    key: "_output_shapes"
    value {
      list {
        shape {
          dim {
            size: 64
          }
        }
      }
    }
  }
  attr {
    key: "dtype"
    value {
      type: DT_FLOAT
    }
  }
  attr {
    key: "value"
    value {
      tensor {
        dtype: DT_FLOAT
        tensor_shape {
          dim {
            size: 64
          }
        }
        float_val: 0.0
      }
    }
  }
}
node {
  name: "VDSR/BatchNorm_1/beta"
  op: "VariableV2"
  attr {
    key: "_class"
    value {
      list {
        s: "loc:@VDSR/BatchNorm_1/beta"
      }
    }
  }
  attr {
    key: "_output_shapes"
    value {
      list {
        shape {
          dim {
            size: 64
          }
        }
      }
    }
  }
  attr {
    key: "container"
    value {
      s: ""
    }
  }
  attr {
    key: "dtype"
    value {
      type: DT_FLOAT
    }
  }
  attr {
    key: "shape"
    value {
      shape {
        dim {
          size: 64
        }
      }
    }
  }
  attr {
    key: "shared_name"
    value {
      s: ""
    }
  }
}
node {
  name: "VDSR/BatchNorm_1/beta/Assign"
  op: "Assign"
  input: "VDSR/BatchNorm_1/beta"
  input: "VDSR/BatchNorm_1/beta/Initializer/zeros"
  attr {
    key: "T"
    value {
      type: DT_FLOAT
    }
  }
  attr {
    key: "_class"
    value {
      list {
        s: "loc:@VDSR/BatchNorm_1/beta"
      }
    }
  }
  attr {
    key: "_output_shapes"
    value {
      list {
        shape {
          dim {
            size: 64
          }
        }
      }
    }
  }
  attr {
    key: "use_locking"
    value {
      b: true
    }
  }
  attr {
    key: "validate_shape"
    value {
      b: true
    }
  }
}
node {
  name: "VDSR/BatchNorm_1/beta/read"
  op: "Identity"
  input: "VDSR/BatchNorm_1/beta"
  attr {
    key: "T"
    value {
      type: DT_FLOAT
    }
  }
  attr {
    key: "_class"
    value {
      list {
        s: "loc:@VDSR/BatchNorm_1/beta"
      }
    }
  }
  attr {
    key: "_output_shapes"
    value {
      list {
        shape {
          dim {
            size: 64
          }
        }
      }
    }
  }
}
node {
  name: "VDSR/BatchNorm_1/gamma/Initializer/ones"
  op: "Const"
  attr {
    key: "_class"
    value {
      list {
        s: "loc:@VDSR/BatchNorm_1/gamma"
      }
    }
  }
  attr {
    key: "_output_shapes"
    value {
      list {
        shape {
          dim {
            size: 64
          }
        }
      }
    }
  }
  attr {
    key: "dtype"
    value {
      type: DT_FLOAT
    }
  }
  attr {
    key: "value"
    value {
      tensor {
        dtype: DT_FLOAT
        tensor_shape {
          dim {
            size: 64
          }
        }
        float_val: 1.0
      }
    }
  }
}
node {
  name: "VDSR/BatchNorm_1/gamma"
  op: "VariableV2"
  attr {
    key: "_class"
    value {
      list {
        s: "loc:@VDSR/BatchNorm_1/gamma"
      }
    }
  }
  attr {
    key: "_output_shapes"
    value {
      list {
        shape {
          dim {
            size: 64
          }
        }
      }
    }
  }
  attr {
    key: "container"
    value {
      s: ""
    }
  }
  attr {
    key: "dtype"
    value {
      type: DT_FLOAT
    }
  }
  attr {
    key: "shape"
    value {
      shape {
        dim {
          size: 64
        }
      }
    }
  }
  attr {
    key: "shared_name"
    value {
      s: ""
    }
  }
}
node {
  name: "VDSR/BatchNorm_1/gamma/Assign"
  op: "Assign"
  input: "VDSR/BatchNorm_1/gamma"
  input: "VDSR/BatchNorm_1/gamma/Initializer/ones"
  attr {
    key: "T"
    value {
      type: DT_FLOAT
    }
  }
  attr {
    key: "_class"
    value {
      list {
        s: "loc:@VDSR/BatchNorm_1/gamma"
      }
    }
  }
  attr {
    key: "_output_shapes"
    value {
      list {
        shape {
          dim {
            size: 64
          }
        }
      }
    }
  }
  attr {
    key: "use_locking"
    value {
      b: true
    }
  }
  attr {
    key: "validate_shape"
    value {
      b: true
    }
  }
}
node {
  name: "VDSR/BatchNorm_1/gamma/read"
  op: "Identity"
  input: "VDSR/BatchNorm_1/gamma"
  attr {
    key: "T"
    value {
      type: DT_FLOAT
    }
  }
  attr {
    key: "_class"
    value {
      list {
        s: "loc:@VDSR/BatchNorm_1/gamma"
      }
    }
  }
  attr {
    key: "_output_shapes"
    value {
      list {
        shape {
          dim {
            size: 64
          }
        }
      }
    }
  }
}
node {
  name: "VDSR/BatchNorm_1/moving_mean/Initializer/zeros"
  op: "Const"
  attr {
    key: "_class"
    value {
      list {
        s: "loc:@VDSR/BatchNorm_1/moving_mean"
      }
    }
  }
  attr {
    key: "_output_shapes"
    value {
      list {
        shape {
          dim {
            size: 64
          }
        }
      }
    }
  }
  attr {
    key: "dtype"
    value {
      type: DT_FLOAT
    }
  }
  attr {
    key: "value"
    value {
      tensor {
        dtype: DT_FLOAT
        tensor_shape {
          dim {
            size: 64
          }
        }
        float_val: 0.0
      }
    }
  }
}
node {
  name: "VDSR/BatchNorm_1/moving_mean"
  op: "VariableV2"
  attr {
    key: "_class"
    value {
      list {
        s: "loc:@VDSR/BatchNorm_1/moving_mean"
      }
    }
  }
  attr {
    key: "_output_shapes"
    value {
      list {
        shape {
          dim {
            size: 64
          }
        }
      }
    }
  }
  attr {
    key: "container"
    value {
      s: ""
    }
  }
  attr {
    key: "dtype"
    value {
      type: DT_FLOAT
    }
  }
  attr {
    key: "shape"
    value {
      shape {
        dim {
          size: 64
        }
      }
    }
  }
  attr {
    key: "shared_name"
    value {
      s: ""
    }
  }
}
node {
  name: "VDSR/BatchNorm_1/moving_mean/Assign"
  op: "Assign"
  input: "VDSR/BatchNorm_1/moving_mean"
  input: "VDSR/BatchNorm_1/moving_mean/Initializer/zeros"
  attr {
    key: "T"
    value {
      type: DT_FLOAT
    }
  }
  attr {
    key: "_class"
    value {
      list {
        s: "loc:@VDSR/BatchNorm_1/moving_mean"
      }
    }
  }
  attr {
    key: "_output_shapes"
    value {
      list {
        shape {
          dim {
            size: 64
          }
        }
      }
    }
  }
  attr {
    key: "use_locking"
    value {
      b: true
    }
  }
  attr {
    key: "validate_shape"
    value {
      b: true
    }
  }
}
node {
  name: "VDSR/BatchNorm_1/moving_mean/read"
  op: "Identity"
  input: "VDSR/BatchNorm_1/moving_mean"
  attr {
    key: "T"
    value {
      type: DT_FLOAT
    }
  }
  attr {
    key: "_class"
    value {
      list {
        s: "loc:@VDSR/BatchNorm_1/moving_mean"
      }
    }
  }
  attr {
    key: "_output_shapes"
    value {
      list {
        shape {
          dim {
            size: 64
          }
        }
      }
    }
  }
}
node {
  name: "VDSR/BatchNorm_1/moving_variance/Initializer/ones"
  op: "Const"
  attr {
    key: "_class"
    value {
      list {
        s: "loc:@VDSR/BatchNorm_1/moving_variance"
      }
    }
  }
  attr {
    key: "_output_shapes"
    value {
      list {
        shape {
          dim {
            size: 64
          }
        }
      }
    }
  }
  attr {
    key: "dtype"
    value {
      type: DT_FLOAT
    }
  }
  attr {
    key: "value"
    value {
      tensor {
        dtype: DT_FLOAT
        tensor_shape {
          dim {
            size: 64
          }
        }
        float_val: 1.0
      }
    }
  }
}
node {
  name: "VDSR/BatchNorm_1/moving_variance"
  op: "VariableV2"
  attr {
    key: "_class"
    value {
      list {
        s: "loc:@VDSR/BatchNorm_1/moving_variance"
      }
    }
  }
  attr {
    key: "_output_shapes"
    value {
      list {
        shape {
          dim {
            size: 64
          }
        }
      }
    }
  }
  attr {
    key: "container"
    value {
      s: ""
    }
  }
  attr {
    key: "dtype"
    value {
      type: DT_FLOAT
    }
  }
  attr {
    key: "shape"
    value {
      shape {
        dim {
          size: 64
        }
      }
    }
  }
  attr {
    key: "shared_name"
    value {
      s: ""
    }
  }
}
node {
  name: "VDSR/BatchNorm_1/moving_variance/Assign"
  op: "Assign"
  input: "VDSR/BatchNorm_1/moving_variance"
  input: "VDSR/BatchNorm_1/moving_variance/Initializer/ones"
  attr {
    key: "T"
    value {
      type: DT_FLOAT
    }
  }
  attr {
    key: "_class"
    value {
      list {
        s: "loc:@VDSR/BatchNorm_1/moving_variance"
      }
    }
  }
  attr {
    key: "_output_shapes"
    value {
      list {
        shape {
          dim {
            size: 64
          }
        }
      }
    }
  }
  attr {
    key: "use_locking"
    value {
      b: true
    }
  }
  attr {
    key: "validate_shape"
    value {
      b: true
    }
  }
}
node {
  name: "VDSR/BatchNorm_1/moving_variance/read"
  op: "Identity"
  input: "VDSR/BatchNorm_1/moving_variance"
  attr {
    key: "T"
    value {
      type: DT_FLOAT
    }
  }
  attr {
    key: "_class"
    value {
      list {
        s: "loc:@VDSR/BatchNorm_1/moving_variance"
      }
    }
  }
  attr {
    key: "_output_shapes"
    value {
      list {
        shape {
          dim {
            size: 64
          }
        }
      }
    }
  }
}
node {
  name: "VDSR/BatchNorm_1/Const"
  op: "Const"
  attr {
    key: "_output_shapes"
    value {
      list {
        shape {
          dim {
          }
        }
      }
    }
  }
  attr {
    key: "dtype"
    value {
      type: DT_FLOAT
    }
  }
  attr {
    key: "value"
    value {
      tensor {
        dtype: DT_FLOAT
        tensor_shape {
          dim {
          }
        }
      }
    }
  }
}
node {
  name: "VDSR/BatchNorm_1/Const_1"
  op: "Const"
  attr {
    key: "_output_shapes"
    value {
      list {
        shape {
          dim {
          }
        }
      }
    }
  }
  attr {
    key: "dtype"
    value {
      type: DT_FLOAT
    }
  }
  attr {
    key: "value"
    value {
      tensor {
        dtype: DT_FLOAT
        tensor_shape {
          dim {
          }
        }
      }
    }
  }
}
node {
  name: "VDSR/BatchNorm_1/FusedBatchNormV3"
  op: "FusedBatchNormV3"
  input: "VDSR/Conv_1/Relu"
  input: "VDSR/BatchNorm_1/gamma/read"
  input: "VDSR/BatchNorm_1/beta/read"
  input: "VDSR/BatchNorm_1/Const"
  input: "VDSR/BatchNorm_1/Const_1"
  attr {
    key: "T"
    value {
      type: DT_FLOAT
    }
  }
  attr {
    key: "U"
    value {
      type: DT_FLOAT
    }
  }
  attr {
    key: "_output_shapes"
    value {
      list {
        shape {
          dim {
            size: 8
          }
          dim {
            size: 64
          }
          dim {
            size: 64
          }
          dim {
            size: 64
          }
        }
        shape {
          dim {
            size: 64
          }
        }
        shape {
          dim {
            size: 64
          }
        }
        shape {
          dim {
            size: 64
          }
        }
        shape {
          dim {
            size: 64
          }
        }
        shape {
          unknown_rank: true
        }
      }
    }
  }
  attr {
    key: "data_format"
    value {
      s: "NCHW"
    }
  }
  attr {
    key: "epsilon"
    value {
      f: 1.0009999641624745e-05
    }
  }
  attr {
    key: "is_training"
    value {
      b: true
    }
  }
}
node {
  name: "VDSR/BatchNorm_1/AssignMovingAvg/decay"
  op: "Const"
  attr {
    key: "_output_shapes"
    value {
      list {
        shape {
        }
      }
    }
  }
  attr {
    key: "dtype"
    value {
      type: DT_FLOAT
    }
  }
  attr {
    key: "value"
    value {
      tensor {
        dtype: DT_FLOAT
        tensor_shape {
        }
        float_val: 0.10000000149011612
      }
    }
  }
}
node {
  name: "VDSR/BatchNorm_1/AssignMovingAvg/sub"
  op: "Sub"
  input: "VDSR/BatchNorm_1/moving_mean/read"
  input: "VDSR/BatchNorm_1/FusedBatchNormV3:1"
  attr {
    key: "T"
    value {
      type: DT_FLOAT
    }
  }
  attr {
    key: "_output_shapes"
    value {
      list {
        shape {
          dim {
            size: 64
          }
        }
      }
    }
  }
}
node {
  name: "VDSR/BatchNorm_1/AssignMovingAvg/mul"
  op: "Mul"
  input: "VDSR/BatchNorm_1/AssignMovingAvg/sub"
  input: "VDSR/BatchNorm_1/AssignMovingAvg/decay"
  attr {
    key: "T"
    value {
      type: DT_FLOAT
    }
  }
  attr {
    key: "_output_shapes"
    value {
      list {
        shape {
          dim {
            size: 64
          }
        }
      }
    }
  }
}
node {
  name: "VDSR/BatchNorm_1/AssignMovingAvg"
  op: "AssignSub"
  input: "VDSR/BatchNorm_1/moving_mean"
  input: "VDSR/BatchNorm_1/AssignMovingAvg/mul"
  attr {
    key: "T"
    value {
      type: DT_FLOAT
    }
  }
  attr {
    key: "_class"
    value {
      list {
        s: "loc:@VDSR/BatchNorm_1/moving_mean"
      }
    }
  }
  attr {
    key: "_output_shapes"
    value {
      list {
        shape {
          dim {
            size: 64
          }
        }
      }
    }
  }
  attr {
    key: "use_locking"
    value {
      b: false
    }
  }
}
node {
  name: "VDSR/BatchNorm_1/AssignMovingAvg_1/decay"
  op: "Const"
  attr {
    key: "_output_shapes"
    value {
      list {
        shape {
        }
      }
    }
  }
  attr {
    key: "dtype"
    value {
      type: DT_FLOAT
    }
  }
  attr {
    key: "value"
    value {
      tensor {
        dtype: DT_FLOAT
        tensor_shape {
        }
        float_val: 0.10000000149011612
      }
    }
  }
}
node {
  name: "VDSR/BatchNorm_1/AssignMovingAvg_1/sub"
  op: "Sub"
  input: "VDSR/BatchNorm_1/moving_variance/read"
  input: "VDSR/BatchNorm_1/FusedBatchNormV3:2"
  attr {
    key: "T"
    value {
      type: DT_FLOAT
    }
  }
  attr {
    key: "_output_shapes"
    value {
      list {
        shape {
          dim {
            size: 64
          }
        }
      }
    }
  }
}
node {
  name: "VDSR/BatchNorm_1/AssignMovingAvg_1/mul"
  op: "Mul"
  input: "VDSR/BatchNorm_1/AssignMovingAvg_1/sub"
  input: "VDSR/BatchNorm_1/AssignMovingAvg_1/decay"
  attr {
    key: "T"
    value {
      type: DT_FLOAT
    }
  }
  attr {
    key: "_output_shapes"
    value {
      list {
        shape {
          dim {
            size: 64
          }
        }
      }
    }
  }
}
node {
  name: "VDSR/BatchNorm_1/AssignMovingAvg_1"
  op: "AssignSub"
  input: "VDSR/BatchNorm_1/moving_variance"
  input: "VDSR/BatchNorm_1/AssignMovingAvg_1/mul"
  attr {
    key: "T"
    value {
      type: DT_FLOAT
    }
  }
  attr {
    key: "_class"
    value {
      list {
        s: "loc:@VDSR/BatchNorm_1/moving_variance"
      }
    }
  }
  attr {
    key: "_output_shapes"
    value {
      list {
        shape {
          dim {
            size: 64
          }
        }
      }
    }
  }
  attr {
    key: "use_locking"
    value {
      b: false
    }
  }
}
node {
  name: "VDSR/BatchNorm_1/Identity"
  op: "Identity"
  input: "VDSR/BatchNorm_1/FusedBatchNormV3"
  input: "^VDSR/BatchNorm_1/AssignMovingAvg"
  input: "^VDSR/BatchNorm_1/AssignMovingAvg_1"
  attr {
    key: "T"
    value {
      type: DT_FLOAT
    }
  }
  attr {
    key: "_output_shapes"
    value {
      list {
        shape {
          dim {
            size: 8
          }
          dim {
            size: 64
          }
          dim {
            size: 64
          }
          dim {
            size: 64
          }
        }
      }
    }
  }
}
node {
  name: "VDSR/BatchNorm_1/Relu"
  op: "Relu"
  input: "VDSR/BatchNorm_1/Identity"
  attr {
    key: "T"
    value {
      type: DT_FLOAT
    }
  }
  attr {
    key: "_output_shapes"
    value {
      list {
        shape {
          dim {
            size: 8
          }
          dim {
            size: 64
          }
          dim {
            size: 64
          }
          dim {
            size: 64
          }
        }
      }
    }
  }
}
node {
  name: "VDSR/Conv_2/weights/Initializer/random_uniform/shape"
  op: "Const"
  attr {
    key: "_class"
    value {
      list {
        s: "loc:@VDSR/Conv_2/weights"
      }
    }
  }
  attr {
    key: "_output_shapes"
    value {
      list {
        shape {
          dim {
            size: 4
          }
        }
      }
    }
  }
  attr {
    key: "dtype"
    value {
      type: DT_INT32
    }
  }
  attr {
    key: "value"
    value {
      tensor {
        dtype: DT_INT32
        tensor_shape {
          dim {
            size: 4
          }
        }
        tensor_content: "\003\000\000\000\003\000\000\000@\000\000\000@\000\000\000"
      }
    }
  }
}
node {
  name: "VDSR/Conv_2/weights/Initializer/random_uniform/min"
  op: "Const"
  attr {
    key: "_class"
    value {
      list {
        s: "loc:@VDSR/Conv_2/weights"
      }
    }
  }
  attr {
    key: "_output_shapes"
    value {
      list {
        shape {
        }
      }
    }
  }
  attr {
    key: "dtype"
    value {
      type: DT_FLOAT
    }
  }
  attr {
    key: "value"
    value {
      tensor {
        dtype: DT_FLOAT
        tensor_shape {
        }
        float_val: -0.07216878235340118
      }
    }
  }
}
node {
  name: "VDSR/Conv_2/weights/Initializer/random_uniform/max"
  op: "Const"
  attr {
    key: "_class"
    value {
      list {
        s: "loc:@VDSR/Conv_2/weights"
      }
    }
  }
  attr {
    key: "_output_shapes"
    value {
      list {
        shape {
        }
      }
    }
  }
  attr {
    key: "dtype"
    value {
      type: DT_FLOAT
    }
  }
  attr {
    key: "value"
    value {
      tensor {
        dtype: DT_FLOAT
        tensor_shape {
        }
        float_val: 0.07216878235340118
      }
    }
  }
}
node {
  name: "VDSR/Conv_2/weights/Initializer/random_uniform/RandomUniform"
  op: "RandomUniform"
  input: "VDSR/Conv_2/weights/Initializer/random_uniform/shape"
  attr {
    key: "T"
    value {
      type: DT_INT32
    }
  }
  attr {
    key: "_class"
    value {
      list {
        s: "loc:@VDSR/Conv_2/weights"
      }
    }
  }
  attr {
    key: "_output_shapes"
    value {
      list {
        shape {
          dim {
            size: 3
          }
          dim {
            size: 3
          }
          dim {
            size: 64
          }
          dim {
            size: 64
          }
        }
      }
    }
  }
  attr {
    key: "dtype"
    value {
      type: DT_FLOAT
    }
  }
  attr {
    key: "seed"
    value {
      i: 123
    }
  }
  attr {
    key: "seed2"
    value {
      i: 126
    }
  }
}
node {
  name: "VDSR/Conv_2/weights/Initializer/random_uniform/sub"
  op: "Sub"
  input: "VDSR/Conv_2/weights/Initializer/random_uniform/max"
  input: "VDSR/Conv_2/weights/Initializer/random_uniform/min"
  attr {
    key: "T"
    value {
      type: DT_FLOAT
    }
  }
  attr {
    key: "_class"
    value {
      list {
        s: "loc:@VDSR/Conv_2/weights"
      }
    }
  }
  attr {
    key: "_output_shapes"
    value {
      list {
        shape {
        }
      }
    }
  }
}
node {
  name: "VDSR/Conv_2/weights/Initializer/random_uniform/mul"
  op: "Mul"
  input: "VDSR/Conv_2/weights/Initializer/random_uniform/RandomUniform"
  input: "VDSR/Conv_2/weights/Initializer/random_uniform/sub"
  attr {
    key: "T"
    value {
      type: DT_FLOAT
    }
  }
  attr {
    key: "_class"
    value {
      list {
        s: "loc:@VDSR/Conv_2/weights"
      }
    }
  }
  attr {
    key: "_output_shapes"
    value {
      list {
        shape {
          dim {
            size: 3
          }
          dim {
            size: 3
          }
          dim {
            size: 64
          }
          dim {
            size: 64
          }
        }
      }
    }
  }
}
node {
  name: "VDSR/Conv_2/weights/Initializer/random_uniform"
  op: "Add"
  input: "VDSR/Conv_2/weights/Initializer/random_uniform/mul"
  input: "VDSR/Conv_2/weights/Initializer/random_uniform/min"
  attr {
    key: "T"
    value {
      type: DT_FLOAT
    }
  }
  attr {
    key: "_class"
    value {
      list {
        s: "loc:@VDSR/Conv_2/weights"
      }
    }
  }
  attr {
    key: "_output_shapes"
    value {
      list {
        shape {
          dim {
            size: 3
          }
          dim {
            size: 3
          }
          dim {
            size: 64
          }
          dim {
            size: 64
          }
        }
      }
    }
  }
}
node {
  name: "VDSR/Conv_2/weights"
  op: "VariableV2"
  attr {
    key: "_class"
    value {
      list {
        s: "loc:@VDSR/Conv_2/weights"
      }
    }
  }
  attr {
    key: "_output_shapes"
    value {
      list {
        shape {
          dim {
            size: 3
          }
          dim {
            size: 3
          }
          dim {
            size: 64
          }
          dim {
            size: 64
          }
        }
      }
    }
  }
  attr {
    key: "container"
    value {
      s: ""
    }
  }
  attr {
    key: "dtype"
    value {
      type: DT_FLOAT
    }
  }
  attr {
    key: "shape"
    value {
      shape {
        dim {
          size: 3
        }
        dim {
          size: 3
        }
        dim {
          size: 64
        }
        dim {
          size: 64
        }
      }
    }
  }
  attr {
    key: "shared_name"
    value {
      s: ""
    }
  }
}
node {
  name: "VDSR/Conv_2/weights/Assign"
  op: "Assign"
  input: "VDSR/Conv_2/weights"
  input: "VDSR/Conv_2/weights/Initializer/random_uniform"
  attr {
    key: "T"
    value {
      type: DT_FLOAT
    }
  }
  attr {
    key: "_class"
    value {
      list {
        s: "loc:@VDSR/Conv_2/weights"
      }
    }
  }
  attr {
    key: "_output_shapes"
    value {
      list {
        shape {
          dim {
            size: 3
          }
          dim {
            size: 3
          }
          dim {
            size: 64
          }
          dim {
            size: 64
          }
        }
      }
    }
  }
  attr {
    key: "use_locking"
    value {
      b: true
    }
  }
  attr {
    key: "validate_shape"
    value {
      b: true
    }
  }
}
node {
  name: "VDSR/Conv_2/weights/read"
  op: "Identity"
  input: "VDSR/Conv_2/weights"
  attr {
    key: "T"
    value {
      type: DT_FLOAT
    }
  }
  attr {
    key: "_class"
    value {
      list {
        s: "loc:@VDSR/Conv_2/weights"
      }
    }
  }
  attr {
    key: "_output_shapes"
    value {
      list {
        shape {
          dim {
            size: 3
          }
          dim {
            size: 3
          }
          dim {
            size: 64
          }
          dim {
            size: 64
          }
        }
      }
    }
  }
}
node {
  name: "VDSR/Conv_2/biases/Initializer/zeros"
  op: "Const"
  attr {
    key: "_class"
    value {
      list {
        s: "loc:@VDSR/Conv_2/biases"
      }
    }
  }
  attr {
    key: "_output_shapes"
    value {
      list {
        shape {
          dim {
            size: 64
          }
        }
      }
    }
  }
  attr {
    key: "dtype"
    value {
      type: DT_FLOAT
    }
  }
  attr {
    key: "value"
    value {
      tensor {
        dtype: DT_FLOAT
        tensor_shape {
          dim {
            size: 64
          }
        }
        float_val: 0.0
      }
    }
  }
}
node {
  name: "VDSR/Conv_2/biases"
  op: "VariableV2"
  attr {
    key: "_class"
    value {
      list {
        s: "loc:@VDSR/Conv_2/biases"
      }
    }
  }
  attr {
    key: "_output_shapes"
    value {
      list {
        shape {
          dim {
            size: 64
          }
        }
      }
    }
  }
  attr {
    key: "container"
    value {
      s: ""
    }
  }
  attr {
    key: "dtype"
    value {
      type: DT_FLOAT
    }
  }
  attr {
    key: "shape"
    value {
      shape {
        dim {
          size: 64
        }
      }
    }
  }
  attr {
    key: "shared_name"
    value {
      s: ""
    }
  }
}
node {
  name: "VDSR/Conv_2/biases/Assign"
  op: "Assign"
  input: "VDSR/Conv_2/biases"
  input: "VDSR/Conv_2/biases/Initializer/zeros"
  attr {
    key: "T"
    value {
      type: DT_FLOAT
    }
  }
  attr {
    key: "_class"
    value {
      list {
        s: "loc:@VDSR/Conv_2/biases"
      }
    }
  }
  attr {
    key: "_output_shapes"
    value {
      list {
        shape {
          dim {
            size: 64
          }
        }
      }
    }
  }
  attr {
    key: "use_locking"
    value {
      b: true
    }
  }
  attr {
    key: "validate_shape"
    value {
      b: true
    }
  }
}
node {
  name: "VDSR/Conv_2/biases/read"
  op: "Identity"
  input: "VDSR/Conv_2/biases"
  attr {
    key: "T"
    value {
      type: DT_FLOAT
    }
  }
  attr {
    key: "_class"
    value {
      list {
        s: "loc:@VDSR/Conv_2/biases"
      }
    }
  }
  attr {
    key: "_output_shapes"
    value {
      list {
        shape {
          dim {
            size: 64
          }
        }
      }
    }
  }
}
node {
  name: "VDSR/Conv_2/dilation_rate"
  op: "Const"
  attr {
    key: "_output_shapes"
    value {
      list {
        shape {
          dim {
            size: 2
          }
        }
      }
    }
  }
  attr {
    key: "dtype"
    value {
      type: DT_INT32
    }
  }
  attr {
    key: "value"
    value {
      tensor {
        dtype: DT_INT32
        tensor_shape {
          dim {
            size: 2
          }
        }
        tensor_content: "\001\000\000\000\001\000\000\000"
      }
    }
  }
}
node {
  name: "VDSR/Conv_2/Conv2D"
  op: "Conv2D"
  input: "VDSR/BatchNorm_1/Relu"
  input: "VDSR/Conv_2/weights/read"
  attr {
    key: "T"
    value {
      type: DT_FLOAT
    }
  }
  attr {
    key: "_output_shapes"
    value {
      list {
        shape {
          dim {
            size: 8
          }
          dim {
            size: 64
          }
          dim {
            size: 64
          }
          dim {
            size: 64
          }
        }
      }
    }
  }
  attr {
    key: "data_format"
    value {
      s: "NCHW"
    }
  }
  attr {
    key: "dilations"
    value {
      list {
        i: 1
        i: 1
        i: 1
        i: 1
      }
    }
  }
  attr {
    key: "explicit_paddings"
    value {
      list {
      }
    }
  }
  attr {
    key: "padding"
    value {
      s: "SAME"
    }
  }
  attr {
    key: "strides"
    value {
      list {
        i: 1
        i: 1
        i: 1
        i: 1
      }
    }
  }
  attr {
    key: "use_cudnn_on_gpu"
    value {
      b: true
    }
  }
}
node {
  name: "VDSR/Conv_2/BiasAdd"
  op: "BiasAdd"
  input: "VDSR/Conv_2/Conv2D"
  input: "VDSR/Conv_2/biases/read"
  attr {
    key: "T"
    value {
      type: DT_FLOAT
    }
  }
  attr {
    key: "_output_shapes"
    value {
      list {
        shape {
          dim {
            size: 8
          }
          dim {
            size: 64
          }
          dim {
            size: 64
          }
          dim {
            size: 64
          }
        }
      }
    }
  }
  attr {
    key: "data_format"
    value {
      s: "NCHW"
    }
  }
}
node {
  name: "VDSR/Conv_2/Relu"
  op: "Relu"
  input: "VDSR/Conv_2/BiasAdd"
  attr {
    key: "T"
    value {
      type: DT_FLOAT
    }
  }
  attr {
    key: "_output_shapes"
    value {
      list {
        shape {
          dim {
            size: 8
          }
          dim {
            size: 64
          }
          dim {
            size: 64
          }
          dim {
            size: 64
          }
        }
      }
    }
  }
}
node {
  name: "VDSR/BatchNorm_2/beta/Initializer/zeros"
  op: "Const"
  attr {
    key: "_class"
    value {
      list {
        s: "loc:@VDSR/BatchNorm_2/beta"
      }
    }
  }
  attr {
    key: "_output_shapes"
    value {
      list {
        shape {
          dim {
            size: 64
          }
        }
      }
    }
  }
  attr {
    key: "dtype"
    value {
      type: DT_FLOAT
    }
  }
  attr {
    key: "value"
    value {
      tensor {
        dtype: DT_FLOAT
        tensor_shape {
          dim {
            size: 64
          }
        }
        float_val: 0.0
      }
    }
  }
}
node {
  name: "VDSR/BatchNorm_2/beta"
  op: "VariableV2"
  attr {
    key: "_class"
    value {
      list {
        s: "loc:@VDSR/BatchNorm_2/beta"
      }
    }
  }
  attr {
    key: "_output_shapes"
    value {
      list {
        shape {
          dim {
            size: 64
          }
        }
      }
    }
  }
  attr {
    key: "container"
    value {
      s: ""
    }
  }
  attr {
    key: "dtype"
    value {
      type: DT_FLOAT
    }
  }
  attr {
    key: "shape"
    value {
      shape {
        dim {
          size: 64
        }
      }
    }
  }
  attr {
    key: "shared_name"
    value {
      s: ""
    }
  }
}
node {
  name: "VDSR/BatchNorm_2/beta/Assign"
  op: "Assign"
  input: "VDSR/BatchNorm_2/beta"
  input: "VDSR/BatchNorm_2/beta/Initializer/zeros"
  attr {
    key: "T"
    value {
      type: DT_FLOAT
    }
  }
  attr {
    key: "_class"
    value {
      list {
        s: "loc:@VDSR/BatchNorm_2/beta"
      }
    }
  }
  attr {
    key: "_output_shapes"
    value {
      list {
        shape {
          dim {
            size: 64
          }
        }
      }
    }
  }
  attr {
    key: "use_locking"
    value {
      b: true
    }
  }
  attr {
    key: "validate_shape"
    value {
      b: true
    }
  }
}
node {
  name: "VDSR/BatchNorm_2/beta/read"
  op: "Identity"
  input: "VDSR/BatchNorm_2/beta"
  attr {
    key: "T"
    value {
      type: DT_FLOAT
    }
  }
  attr {
    key: "_class"
    value {
      list {
        s: "loc:@VDSR/BatchNorm_2/beta"
      }
    }
  }
  attr {
    key: "_output_shapes"
    value {
      list {
        shape {
          dim {
            size: 64
          }
        }
      }
    }
  }
}
node {
  name: "VDSR/BatchNorm_2/gamma/Initializer/ones"
  op: "Const"
  attr {
    key: "_class"
    value {
      list {
        s: "loc:@VDSR/BatchNorm_2/gamma"
      }
    }
  }
  attr {
    key: "_output_shapes"
    value {
      list {
        shape {
          dim {
            size: 64
          }
        }
      }
    }
  }
  attr {
    key: "dtype"
    value {
      type: DT_FLOAT
    }
  }
  attr {
    key: "value"
    value {
      tensor {
        dtype: DT_FLOAT
        tensor_shape {
          dim {
            size: 64
          }
        }
        float_val: 1.0
      }
    }
  }
}
node {
  name: "VDSR/BatchNorm_2/gamma"
  op: "VariableV2"
  attr {
    key: "_class"
    value {
      list {
        s: "loc:@VDSR/BatchNorm_2/gamma"
      }
    }
  }
  attr {
    key: "_output_shapes"
    value {
      list {
        shape {
          dim {
            size: 64
          }
        }
      }
    }
  }
  attr {
    key: "container"
    value {
      s: ""
    }
  }
  attr {
    key: "dtype"
    value {
      type: DT_FLOAT
    }
  }
  attr {
    key: "shape"
    value {
      shape {
        dim {
          size: 64
        }
      }
    }
  }
  attr {
    key: "shared_name"
    value {
      s: ""
    }
  }
}
node {
  name: "VDSR/BatchNorm_2/gamma/Assign"
  op: "Assign"
  input: "VDSR/BatchNorm_2/gamma"
  input: "VDSR/BatchNorm_2/gamma/Initializer/ones"
  attr {
    key: "T"
    value {
      type: DT_FLOAT
    }
  }
  attr {
    key: "_class"
    value {
      list {
        s: "loc:@VDSR/BatchNorm_2/gamma"
      }
    }
  }
  attr {
    key: "_output_shapes"
    value {
      list {
        shape {
          dim {
            size: 64
          }
        }
      }
    }
  }
  attr {
    key: "use_locking"
    value {
      b: true
    }
  }
  attr {
    key: "validate_shape"
    value {
      b: true
    }
  }
}
node {
  name: "VDSR/BatchNorm_2/gamma/read"
  op: "Identity"
  input: "VDSR/BatchNorm_2/gamma"
  attr {
    key: "T"
    value {
      type: DT_FLOAT
    }
  }
  attr {
    key: "_class"
    value {
      list {
        s: "loc:@VDSR/BatchNorm_2/gamma"
      }
    }
  }
  attr {
    key: "_output_shapes"
    value {
      list {
        shape {
          dim {
            size: 64
          }
        }
      }
    }
  }
}
node {
  name: "VDSR/BatchNorm_2/moving_mean/Initializer/zeros"
  op: "Const"
  attr {
    key: "_class"
    value {
      list {
        s: "loc:@VDSR/BatchNorm_2/moving_mean"
      }
    }
  }
  attr {
    key: "_output_shapes"
    value {
      list {
        shape {
          dim {
            size: 64
          }
        }
      }
    }
  }
  attr {
    key: "dtype"
    value {
      type: DT_FLOAT
    }
  }
  attr {
    key: "value"
    value {
      tensor {
        dtype: DT_FLOAT
        tensor_shape {
          dim {
            size: 64
          }
        }
        float_val: 0.0
      }
    }
  }
}
node {
  name: "VDSR/BatchNorm_2/moving_mean"
  op: "VariableV2"
  attr {
    key: "_class"
    value {
      list {
        s: "loc:@VDSR/BatchNorm_2/moving_mean"
      }
    }
  }
  attr {
    key: "_output_shapes"
    value {
      list {
        shape {
          dim {
            size: 64
          }
        }
      }
    }
  }
  attr {
    key: "container"
    value {
      s: ""
    }
  }
  attr {
    key: "dtype"
    value {
      type: DT_FLOAT
    }
  }
  attr {
    key: "shape"
    value {
      shape {
        dim {
          size: 64
        }
      }
    }
  }
  attr {
    key: "shared_name"
    value {
      s: ""
    }
  }
}
node {
  name: "VDSR/BatchNorm_2/moving_mean/Assign"
  op: "Assign"
  input: "VDSR/BatchNorm_2/moving_mean"
  input: "VDSR/BatchNorm_2/moving_mean/Initializer/zeros"
  attr {
    key: "T"
    value {
      type: DT_FLOAT
    }
  }
  attr {
    key: "_class"
    value {
      list {
        s: "loc:@VDSR/BatchNorm_2/moving_mean"
      }
    }
  }
  attr {
    key: "_output_shapes"
    value {
      list {
        shape {
          dim {
            size: 64
          }
        }
      }
    }
  }
  attr {
    key: "use_locking"
    value {
      b: true
    }
  }
  attr {
    key: "validate_shape"
    value {
      b: true
    }
  }
}
node {
  name: "VDSR/BatchNorm_2/moving_mean/read"
  op: "Identity"
  input: "VDSR/BatchNorm_2/moving_mean"
  attr {
    key: "T"
    value {
      type: DT_FLOAT
    }
  }
  attr {
    key: "_class"
    value {
      list {
        s: "loc:@VDSR/BatchNorm_2/moving_mean"
      }
    }
  }
  attr {
    key: "_output_shapes"
    value {
      list {
        shape {
          dim {
            size: 64
          }
        }
      }
    }
  }
}
node {
  name: "VDSR/BatchNorm_2/moving_variance/Initializer/ones"
  op: "Const"
  attr {
    key: "_class"
    value {
      list {
        s: "loc:@VDSR/BatchNorm_2/moving_variance"
      }
    }
  }
  attr {
    key: "_output_shapes"
    value {
      list {
        shape {
          dim {
            size: 64
          }
        }
      }
    }
  }
  attr {
    key: "dtype"
    value {
      type: DT_FLOAT
    }
  }
  attr {
    key: "value"
    value {
      tensor {
        dtype: DT_FLOAT
        tensor_shape {
          dim {
            size: 64
          }
        }
        float_val: 1.0
      }
    }
  }
}
node {
  name: "VDSR/BatchNorm_2/moving_variance"
  op: "VariableV2"
  attr {
    key: "_class"
    value {
      list {
        s: "loc:@VDSR/BatchNorm_2/moving_variance"
      }
    }
  }
  attr {
    key: "_output_shapes"
    value {
      list {
        shape {
          dim {
            size: 64
          }
        }
      }
    }
  }
  attr {
    key: "container"
    value {
      s: ""
    }
  }
  attr {
    key: "dtype"
    value {
      type: DT_FLOAT
    }
  }
  attr {
    key: "shape"
    value {
      shape {
        dim {
          size: 64
        }
      }
    }
  }
  attr {
    key: "shared_name"
    value {
      s: ""
    }
  }
}
node {
  name: "VDSR/BatchNorm_2/moving_variance/Assign"
  op: "Assign"
  input: "VDSR/BatchNorm_2/moving_variance"
  input: "VDSR/BatchNorm_2/moving_variance/Initializer/ones"
  attr {
    key: "T"
    value {
      type: DT_FLOAT
    }
  }
  attr {
    key: "_class"
    value {
      list {
        s: "loc:@VDSR/BatchNorm_2/moving_variance"
      }
    }
  }
  attr {
    key: "_output_shapes"
    value {
      list {
        shape {
          dim {
            size: 64
          }
        }
      }
    }
  }
  attr {
    key: "use_locking"
    value {
      b: true
    }
  }
  attr {
    key: "validate_shape"
    value {
      b: true
    }
  }
}
node {
  name: "VDSR/BatchNorm_2/moving_variance/read"
  op: "Identity"
  input: "VDSR/BatchNorm_2/moving_variance"
  attr {
    key: "T"
    value {
      type: DT_FLOAT
    }
  }
  attr {
    key: "_class"
    value {
      list {
        s: "loc:@VDSR/BatchNorm_2/moving_variance"
      }
    }
  }
  attr {
    key: "_output_shapes"
    value {
      list {
        shape {
          dim {
            size: 64
          }
        }
      }
    }
  }
}
node {
  name: "VDSR/BatchNorm_2/Const"
  op: "Const"
  attr {
    key: "_output_shapes"
    value {
      list {
        shape {
          dim {
          }
        }
      }
    }
  }
  attr {
    key: "dtype"
    value {
      type: DT_FLOAT
    }
  }
  attr {
    key: "value"
    value {
      tensor {
        dtype: DT_FLOAT
        tensor_shape {
          dim {
          }
        }
      }
    }
  }
}
node {
  name: "VDSR/BatchNorm_2/Const_1"
  op: "Const"
  attr {
    key: "_output_shapes"
    value {
      list {
        shape {
          dim {
          }
        }
      }
    }
  }
  attr {
    key: "dtype"
    value {
      type: DT_FLOAT
    }
  }
  attr {
    key: "value"
    value {
      tensor {
        dtype: DT_FLOAT
        tensor_shape {
          dim {
          }
        }
      }
    }
  }
}
node {
  name: "VDSR/BatchNorm_2/FusedBatchNormV3"
  op: "FusedBatchNormV3"
  input: "VDSR/Conv_2/Relu"
  input: "VDSR/BatchNorm_2/gamma/read"
  input: "VDSR/BatchNorm_2/beta/read"
  input: "VDSR/BatchNorm_2/Const"
  input: "VDSR/BatchNorm_2/Const_1"
  attr {
    key: "T"
    value {
      type: DT_FLOAT
    }
  }
  attr {
    key: "U"
    value {
      type: DT_FLOAT
    }
  }
  attr {
    key: "_output_shapes"
    value {
      list {
        shape {
          dim {
            size: 8
          }
          dim {
            size: 64
          }
          dim {
            size: 64
          }
          dim {
            size: 64
          }
        }
        shape {
          dim {
            size: 64
          }
        }
        shape {
          dim {
            size: 64
          }
        }
        shape {
          dim {
            size: 64
          }
        }
        shape {
          dim {
            size: 64
          }
        }
        shape {
          unknown_rank: true
        }
      }
    }
  }
  attr {
    key: "data_format"
    value {
      s: "NCHW"
    }
  }
  attr {
    key: "epsilon"
    value {
      f: 1.0009999641624745e-05
    }
  }
  attr {
    key: "is_training"
    value {
      b: true
    }
  }
}
node {
  name: "VDSR/BatchNorm_2/AssignMovingAvg/decay"
  op: "Const"
  attr {
    key: "_output_shapes"
    value {
      list {
        shape {
        }
      }
    }
  }
  attr {
    key: "dtype"
    value {
      type: DT_FLOAT
    }
  }
  attr {
    key: "value"
    value {
      tensor {
        dtype: DT_FLOAT
        tensor_shape {
        }
        float_val: 0.10000000149011612
      }
    }
  }
}
node {
  name: "VDSR/BatchNorm_2/AssignMovingAvg/sub"
  op: "Sub"
  input: "VDSR/BatchNorm_2/moving_mean/read"
  input: "VDSR/BatchNorm_2/FusedBatchNormV3:1"
  attr {
    key: "T"
    value {
      type: DT_FLOAT
    }
  }
  attr {
    key: "_output_shapes"
    value {
      list {
        shape {
          dim {
            size: 64
          }
        }
      }
    }
  }
}
node {
  name: "VDSR/BatchNorm_2/AssignMovingAvg/mul"
  op: "Mul"
  input: "VDSR/BatchNorm_2/AssignMovingAvg/sub"
  input: "VDSR/BatchNorm_2/AssignMovingAvg/decay"
  attr {
    key: "T"
    value {
      type: DT_FLOAT
    }
  }
  attr {
    key: "_output_shapes"
    value {
      list {
        shape {
          dim {
            size: 64
          }
        }
      }
    }
  }
}
node {
  name: "VDSR/BatchNorm_2/AssignMovingAvg"
  op: "AssignSub"
  input: "VDSR/BatchNorm_2/moving_mean"
  input: "VDSR/BatchNorm_2/AssignMovingAvg/mul"
  attr {
    key: "T"
    value {
      type: DT_FLOAT
    }
  }
  attr {
    key: "_class"
    value {
      list {
        s: "loc:@VDSR/BatchNorm_2/moving_mean"
      }
    }
  }
  attr {
    key: "_output_shapes"
    value {
      list {
        shape {
          dim {
            size: 64
          }
        }
      }
    }
  }
  attr {
    key: "use_locking"
    value {
      b: false
    }
  }
}
node {
  name: "VDSR/BatchNorm_2/AssignMovingAvg_1/decay"
  op: "Const"
  attr {
    key: "_output_shapes"
    value {
      list {
        shape {
        }
      }
    }
  }
  attr {
    key: "dtype"
    value {
      type: DT_FLOAT
    }
  }
  attr {
    key: "value"
    value {
      tensor {
        dtype: DT_FLOAT
        tensor_shape {
        }
        float_val: 0.10000000149011612
      }
    }
  }
}
node {
  name: "VDSR/BatchNorm_2/AssignMovingAvg_1/sub"
  op: "Sub"
  input: "VDSR/BatchNorm_2/moving_variance/read"
  input: "VDSR/BatchNorm_2/FusedBatchNormV3:2"
  attr {
    key: "T"
    value {
      type: DT_FLOAT
    }
  }
  attr {
    key: "_output_shapes"
    value {
      list {
        shape {
          dim {
            size: 64
          }
        }
      }
    }
  }
}
node {
  name: "VDSR/BatchNorm_2/AssignMovingAvg_1/mul"
  op: "Mul"
  input: "VDSR/BatchNorm_2/AssignMovingAvg_1/sub"
  input: "VDSR/BatchNorm_2/AssignMovingAvg_1/decay"
  attr {
    key: "T"
    value {
      type: DT_FLOAT
    }
  }
  attr {
    key: "_output_shapes"
    value {
      list {
        shape {
          dim {
            size: 64
          }
        }
      }
    }
  }
}
node {
  name: "VDSR/BatchNorm_2/AssignMovingAvg_1"
  op: "AssignSub"
  input: "VDSR/BatchNorm_2/moving_variance"
  input: "VDSR/BatchNorm_2/AssignMovingAvg_1/mul"
  attr {
    key: "T"
    value {
      type: DT_FLOAT
    }
  }
  attr {
    key: "_class"
    value {
      list {
        s: "loc:@VDSR/BatchNorm_2/moving_variance"
      }
    }
  }
  attr {
    key: "_output_shapes"
    value {
      list {
        shape {
          dim {
            size: 64
          }
        }
      }
    }
  }
  attr {
    key: "use_locking"
    value {
      b: false
    }
  }
}
node {
  name: "VDSR/BatchNorm_2/Identity"
  op: "Identity"
  input: "VDSR/BatchNorm_2/FusedBatchNormV3"
  input: "^VDSR/BatchNorm_2/AssignMovingAvg"
  input: "^VDSR/BatchNorm_2/AssignMovingAvg_1"
  attr {
    key: "T"
    value {
      type: DT_FLOAT
    }
  }
  attr {
    key: "_output_shapes"
    value {
      list {
        shape {
          dim {
            size: 8
          }
          dim {
            size: 64
          }
          dim {
            size: 64
          }
          dim {
            size: 64
          }
        }
      }
    }
  }
}
node {
  name: "VDSR/BatchNorm_2/Relu"
  op: "Relu"
  input: "VDSR/BatchNorm_2/Identity"
  attr {
    key: "T"
    value {
      type: DT_FLOAT
    }
  }
  attr {
    key: "_output_shapes"
    value {
      list {
        shape {
          dim {
            size: 8
          }
          dim {
            size: 64
          }
          dim {
            size: 64
          }
          dim {
            size: 64
          }
        }
      }
    }
  }
}
node {
  name: "VDSR/Conv_3/weights/Initializer/random_uniform/shape"
  op: "Const"
  attr {
    key: "_class"
    value {
      list {
        s: "loc:@VDSR/Conv_3/weights"
      }
    }
  }
  attr {
    key: "_output_shapes"
    value {
      list {
        shape {
          dim {
            size: 4
          }
        }
      }
    }
  }
  attr {
    key: "dtype"
    value {
      type: DT_INT32
    }
  }
  attr {
    key: "value"
    value {
      tensor {
        dtype: DT_INT32
        tensor_shape {
          dim {
            size: 4
          }
        }
        tensor_content: "\003\000\000\000\003\000\000\000@\000\000\000@\000\000\000"
      }
    }
  }
}
node {
  name: "VDSR/Conv_3/weights/Initializer/random_uniform/min"
  op: "Const"
  attr {
    key: "_class"
    value {
      list {
        s: "loc:@VDSR/Conv_3/weights"
      }
    }
  }
  attr {
    key: "_output_shapes"
    value {
      list {
        shape {
        }
      }
    }
  }
  attr {
    key: "dtype"
    value {
      type: DT_FLOAT
    }
  }
  attr {
    key: "value"
    value {
      tensor {
        dtype: DT_FLOAT
        tensor_shape {
        }
        float_val: -0.07216878235340118
      }
    }
  }
}
node {
  name: "VDSR/Conv_3/weights/Initializer/random_uniform/max"
  op: "Const"
  attr {
    key: "_class"
    value {
      list {
        s: "loc:@VDSR/Conv_3/weights"
      }
    }
  }
  attr {
    key: "_output_shapes"
    value {
      list {
        shape {
        }
      }
    }
  }
  attr {
    key: "dtype"
    value {
      type: DT_FLOAT
    }
  }
  attr {
    key: "value"
    value {
      tensor {
        dtype: DT_FLOAT
        tensor_shape {
        }
        float_val: 0.07216878235340118
      }
    }
  }
}
node {
  name: "VDSR/Conv_3/weights/Initializer/random_uniform/RandomUniform"
  op: "RandomUniform"
  input: "VDSR/Conv_3/weights/Initializer/random_uniform/shape"
  attr {
    key: "T"
    value {
      type: DT_INT32
    }
  }
  attr {
    key: "_class"
    value {
      list {
        s: "loc:@VDSR/Conv_3/weights"
      }
    }
  }
  attr {
    key: "_output_shapes"
    value {
      list {
        shape {
          dim {
            size: 3
          }
          dim {
            size: 3
          }
          dim {
            size: 64
          }
          dim {
            size: 64
          }
        }
      }
    }
  }
  attr {
    key: "dtype"
    value {
      type: DT_FLOAT
    }
  }
  attr {
    key: "seed"
    value {
      i: 123
    }
  }
  attr {
    key: "seed2"
    value {
      i: 173
    }
  }
}
node {
  name: "VDSR/Conv_3/weights/Initializer/random_uniform/sub"
  op: "Sub"
  input: "VDSR/Conv_3/weights/Initializer/random_uniform/max"
  input: "VDSR/Conv_3/weights/Initializer/random_uniform/min"
  attr {
    key: "T"
    value {
      type: DT_FLOAT
    }
  }
  attr {
    key: "_class"
    value {
      list {
        s: "loc:@VDSR/Conv_3/weights"
      }
    }
  }
  attr {
    key: "_output_shapes"
    value {
      list {
        shape {
        }
      }
    }
  }
}
node {
  name: "VDSR/Conv_3/weights/Initializer/random_uniform/mul"
  op: "Mul"
  input: "VDSR/Conv_3/weights/Initializer/random_uniform/RandomUniform"
  input: "VDSR/Conv_3/weights/Initializer/random_uniform/sub"
  attr {
    key: "T"
    value {
      type: DT_FLOAT
    }
  }
  attr {
    key: "_class"
    value {
      list {
        s: "loc:@VDSR/Conv_3/weights"
      }
    }
  }
  attr {
    key: "_output_shapes"
    value {
      list {
        shape {
          dim {
            size: 3
          }
          dim {
            size: 3
          }
          dim {
            size: 64
          }
          dim {
            size: 64
          }
        }
      }
    }
  }
}
node {
  name: "VDSR/Conv_3/weights/Initializer/random_uniform"
  op: "Add"
  input: "VDSR/Conv_3/weights/Initializer/random_uniform/mul"
  input: "VDSR/Conv_3/weights/Initializer/random_uniform/min"
  attr {
    key: "T"
    value {
      type: DT_FLOAT
    }
  }
  attr {
    key: "_class"
    value {
      list {
        s: "loc:@VDSR/Conv_3/weights"
      }
    }
  }
  attr {
    key: "_output_shapes"
    value {
      list {
        shape {
          dim {
            size: 3
          }
          dim {
            size: 3
          }
          dim {
            size: 64
          }
          dim {
            size: 64
          }
        }
      }
    }
  }
}
node {
  name: "VDSR/Conv_3/weights"
  op: "VariableV2"
  attr {
    key: "_class"
    value {
      list {
        s: "loc:@VDSR/Conv_3/weights"
      }
    }
  }
  attr {
    key: "_output_shapes"
    value {
      list {
        shape {
          dim {
            size: 3
          }
          dim {
            size: 3
          }
          dim {
            size: 64
          }
          dim {
            size: 64
          }
        }
      }
    }
  }
  attr {
    key: "container"
    value {
      s: ""
    }
  }
  attr {
    key: "dtype"
    value {
      type: DT_FLOAT
    }
  }
  attr {
    key: "shape"
    value {
      shape {
        dim {
          size: 3
        }
        dim {
          size: 3
        }
        dim {
          size: 64
        }
        dim {
          size: 64
        }
      }
    }
  }
  attr {
    key: "shared_name"
    value {
      s: ""
    }
  }
}
node {
  name: "VDSR/Conv_3/weights/Assign"
  op: "Assign"
  input: "VDSR/Conv_3/weights"
  input: "VDSR/Conv_3/weights/Initializer/random_uniform"
  attr {
    key: "T"
    value {
      type: DT_FLOAT
    }
  }
  attr {
    key: "_class"
    value {
      list {
        s: "loc:@VDSR/Conv_3/weights"
      }
    }
  }
  attr {
    key: "_output_shapes"
    value {
      list {
        shape {
          dim {
            size: 3
          }
          dim {
            size: 3
          }
          dim {
            size: 64
          }
          dim {
            size: 64
          }
        }
      }
    }
  }
  attr {
    key: "use_locking"
    value {
      b: true
    }
  }
  attr {
    key: "validate_shape"
    value {
      b: true
    }
  }
}
node {
  name: "VDSR/Conv_3/weights/read"
  op: "Identity"
  input: "VDSR/Conv_3/weights"
  attr {
    key: "T"
    value {
      type: DT_FLOAT
    }
  }
  attr {
    key: "_class"
    value {
      list {
        s: "loc:@VDSR/Conv_3/weights"
      }
    }
  }
  attr {
    key: "_output_shapes"
    value {
      list {
        shape {
          dim {
            size: 3
          }
          dim {
            size: 3
          }
          dim {
            size: 64
          }
          dim {
            size: 64
          }
        }
      }
    }
  }
}
node {
  name: "VDSR/Conv_3/biases/Initializer/zeros"
  op: "Const"
  attr {
    key: "_class"
    value {
      list {
        s: "loc:@VDSR/Conv_3/biases"
      }
    }
  }
  attr {
    key: "_output_shapes"
    value {
      list {
        shape {
          dim {
            size: 64
          }
        }
      }
    }
  }
  attr {
    key: "dtype"
    value {
      type: DT_FLOAT
    }
  }
  attr {
    key: "value"
    value {
      tensor {
        dtype: DT_FLOAT
        tensor_shape {
          dim {
            size: 64
          }
        }
        float_val: 0.0
      }
    }
  }
}
node {
  name: "VDSR/Conv_3/biases"
  op: "VariableV2"
  attr {
    key: "_class"
    value {
      list {
        s: "loc:@VDSR/Conv_3/biases"
      }
    }
  }
  attr {
    key: "_output_shapes"
    value {
      list {
        shape {
          dim {
            size: 64
          }
        }
      }
    }
  }
  attr {
    key: "container"
    value {
      s: ""
    }
  }
  attr {
    key: "dtype"
    value {
      type: DT_FLOAT
    }
  }
  attr {
    key: "shape"
    value {
      shape {
        dim {
          size: 64
        }
      }
    }
  }
  attr {
    key: "shared_name"
    value {
      s: ""
    }
  }
}
node {
  name: "VDSR/Conv_3/biases/Assign"
  op: "Assign"
  input: "VDSR/Conv_3/biases"
  input: "VDSR/Conv_3/biases/Initializer/zeros"
  attr {
    key: "T"
    value {
      type: DT_FLOAT
    }
  }
  attr {
    key: "_class"
    value {
      list {
        s: "loc:@VDSR/Conv_3/biases"
      }
    }
  }
  attr {
    key: "_output_shapes"
    value {
      list {
        shape {
          dim {
            size: 64
          }
        }
      }
    }
  }
  attr {
    key: "use_locking"
    value {
      b: true
    }
  }
  attr {
    key: "validate_shape"
    value {
      b: true
    }
  }
}
node {
  name: "VDSR/Conv_3/biases/read"
  op: "Identity"
  input: "VDSR/Conv_3/biases"
  attr {
    key: "T"
    value {
      type: DT_FLOAT
    }
  }
  attr {
    key: "_class"
    value {
      list {
        s: "loc:@VDSR/Conv_3/biases"
      }
    }
  }
  attr {
    key: "_output_shapes"
    value {
      list {
        shape {
          dim {
            size: 64
          }
        }
      }
    }
  }
}
node {
  name: "VDSR/Conv_3/dilation_rate"
  op: "Const"
  attr {
    key: "_output_shapes"
    value {
      list {
        shape {
          dim {
            size: 2
          }
        }
      }
    }
  }
  attr {
    key: "dtype"
    value {
      type: DT_INT32
    }
  }
  attr {
    key: "value"
    value {
      tensor {
        dtype: DT_INT32
        tensor_shape {
          dim {
            size: 2
          }
        }
        tensor_content: "\001\000\000\000\001\000\000\000"
      }
    }
  }
}
node {
  name: "VDSR/Conv_3/Conv2D"
  op: "Conv2D"
  input: "VDSR/BatchNorm_2/Relu"
  input: "VDSR/Conv_3/weights/read"
  attr {
    key: "T"
    value {
      type: DT_FLOAT
    }
  }
  attr {
    key: "_output_shapes"
    value {
      list {
        shape {
          dim {
            size: 8
          }
          dim {
            size: 64
          }
          dim {
            size: 64
          }
          dim {
            size: 64
          }
        }
      }
    }
  }
  attr {
    key: "data_format"
    value {
      s: "NCHW"
    }
  }
  attr {
    key: "dilations"
    value {
      list {
        i: 1
        i: 1
        i: 1
        i: 1
      }
    }
  }
  attr {
    key: "explicit_paddings"
    value {
      list {
      }
    }
  }
  attr {
    key: "padding"
    value {
      s: "SAME"
    }
  }
  attr {
    key: "strides"
    value {
      list {
        i: 1
        i: 1
        i: 1
        i: 1
      }
    }
  }
  attr {
    key: "use_cudnn_on_gpu"
    value {
      b: true
    }
  }
}
node {
  name: "VDSR/Conv_3/BiasAdd"
  op: "BiasAdd"
  input: "VDSR/Conv_3/Conv2D"
  input: "VDSR/Conv_3/biases/read"
  attr {
    key: "T"
    value {
      type: DT_FLOAT
    }
  }
  attr {
    key: "_output_shapes"
    value {
      list {
        shape {
          dim {
            size: 8
          }
          dim {
            size: 64
          }
          dim {
            size: 64
          }
          dim {
            size: 64
          }
        }
      }
    }
  }
  attr {
    key: "data_format"
    value {
      s: "NCHW"
    }
  }
}
node {
  name: "VDSR/Conv_3/Relu"
  op: "Relu"
  input: "VDSR/Conv_3/BiasAdd"
  attr {
    key: "T"
    value {
      type: DT_FLOAT
    }
  }
  attr {
    key: "_output_shapes"
    value {
      list {
        shape {
          dim {
            size: 8
          }
          dim {
            size: 64
          }
          dim {
            size: 64
          }
          dim {
            size: 64
          }
        }
      }
    }
  }
}
node {
  name: "VDSR/BatchNorm_3/beta/Initializer/zeros"
  op: "Const"
  attr {
    key: "_class"
    value {
      list {
        s: "loc:@VDSR/BatchNorm_3/beta"
      }
    }
  }
  attr {
    key: "_output_shapes"
    value {
      list {
        shape {
          dim {
            size: 64
          }
        }
      }
    }
  }
  attr {
    key: "dtype"
    value {
      type: DT_FLOAT
    }
  }
  attr {
    key: "value"
    value {
      tensor {
        dtype: DT_FLOAT
        tensor_shape {
          dim {
            size: 64
          }
        }
        float_val: 0.0
      }
    }
  }
}
node {
  name: "VDSR/BatchNorm_3/beta"
  op: "VariableV2"
  attr {
    key: "_class"
    value {
      list {
        s: "loc:@VDSR/BatchNorm_3/beta"
      }
    }
  }
  attr {
    key: "_output_shapes"
    value {
      list {
        shape {
          dim {
            size: 64
          }
        }
      }
    }
  }
  attr {
    key: "container"
    value {
      s: ""
    }
  }
  attr {
    key: "dtype"
    value {
      type: DT_FLOAT
    }
  }
  attr {
    key: "shape"
    value {
      shape {
        dim {
          size: 64
        }
      }
    }
  }
  attr {
    key: "shared_name"
    value {
      s: ""
    }
  }
}
node {
  name: "VDSR/BatchNorm_3/beta/Assign"
  op: "Assign"
  input: "VDSR/BatchNorm_3/beta"
  input: "VDSR/BatchNorm_3/beta/Initializer/zeros"
  attr {
    key: "T"
    value {
      type: DT_FLOAT
    }
  }
  attr {
    key: "_class"
    value {
      list {
        s: "loc:@VDSR/BatchNorm_3/beta"
      }
    }
  }
  attr {
    key: "_output_shapes"
    value {
      list {
        shape {
          dim {
            size: 64
          }
        }
      }
    }
  }
  attr {
    key: "use_locking"
    value {
      b: true
    }
  }
  attr {
    key: "validate_shape"
    value {
      b: true
    }
  }
}
node {
  name: "VDSR/BatchNorm_3/beta/read"
  op: "Identity"
  input: "VDSR/BatchNorm_3/beta"
  attr {
    key: "T"
    value {
      type: DT_FLOAT
    }
  }
  attr {
    key: "_class"
    value {
      list {
        s: "loc:@VDSR/BatchNorm_3/beta"
      }
    }
  }
  attr {
    key: "_output_shapes"
    value {
      list {
        shape {
          dim {
            size: 64
          }
        }
      }
    }
  }
}
node {
  name: "VDSR/BatchNorm_3/gamma/Initializer/ones"
  op: "Const"
  attr {
    key: "_class"
    value {
      list {
        s: "loc:@VDSR/BatchNorm_3/gamma"
      }
    }
  }
  attr {
    key: "_output_shapes"
    value {
      list {
        shape {
          dim {
            size: 64
          }
        }
      }
    }
  }
  attr {
    key: "dtype"
    value {
      type: DT_FLOAT
    }
  }
  attr {
    key: "value"
    value {
      tensor {
        dtype: DT_FLOAT
        tensor_shape {
          dim {
            size: 64
          }
        }
        float_val: 1.0
      }
    }
  }
}
node {
  name: "VDSR/BatchNorm_3/gamma"
  op: "VariableV2"
  attr {
    key: "_class"
    value {
      list {
        s: "loc:@VDSR/BatchNorm_3/gamma"
      }
    }
  }
  attr {
    key: "_output_shapes"
    value {
      list {
        shape {
          dim {
            size: 64
          }
        }
      }
    }
  }
  attr {
    key: "container"
    value {
      s: ""
    }
  }
  attr {
    key: "dtype"
    value {
      type: DT_FLOAT
    }
  }
  attr {
    key: "shape"
    value {
      shape {
        dim {
          size: 64
        }
      }
    }
  }
  attr {
    key: "shared_name"
    value {
      s: ""
    }
  }
}
node {
  name: "VDSR/BatchNorm_3/gamma/Assign"
  op: "Assign"
  input: "VDSR/BatchNorm_3/gamma"
  input: "VDSR/BatchNorm_3/gamma/Initializer/ones"
  attr {
    key: "T"
    value {
      type: DT_FLOAT
    }
  }
  attr {
    key: "_class"
    value {
      list {
        s: "loc:@VDSR/BatchNorm_3/gamma"
      }
    }
  }
  attr {
    key: "_output_shapes"
    value {
      list {
        shape {
          dim {
            size: 64
          }
        }
      }
    }
  }
  attr {
    key: "use_locking"
    value {
      b: true
    }
  }
  attr {
    key: "validate_shape"
    value {
      b: true
    }
  }
}
node {
  name: "VDSR/BatchNorm_3/gamma/read"
  op: "Identity"
  input: "VDSR/BatchNorm_3/gamma"
  attr {
    key: "T"
    value {
      type: DT_FLOAT
    }
  }
  attr {
    key: "_class"
    value {
      list {
        s: "loc:@VDSR/BatchNorm_3/gamma"
      }
    }
  }
  attr {
    key: "_output_shapes"
    value {
      list {
        shape {
          dim {
            size: 64
          }
        }
      }
    }
  }
}
node {
  name: "VDSR/BatchNorm_3/moving_mean/Initializer/zeros"
  op: "Const"
  attr {
    key: "_class"
    value {
      list {
        s: "loc:@VDSR/BatchNorm_3/moving_mean"
      }
    }
  }
  attr {
    key: "_output_shapes"
    value {
      list {
        shape {
          dim {
            size: 64
          }
        }
      }
    }
  }
  attr {
    key: "dtype"
    value {
      type: DT_FLOAT
    }
  }
  attr {
    key: "value"
    value {
      tensor {
        dtype: DT_FLOAT
        tensor_shape {
          dim {
            size: 64
          }
        }
        float_val: 0.0
      }
    }
  }
}
node {
  name: "VDSR/BatchNorm_3/moving_mean"
  op: "VariableV2"
  attr {
    key: "_class"
    value {
      list {
        s: "loc:@VDSR/BatchNorm_3/moving_mean"
      }
    }
  }
  attr {
    key: "_output_shapes"
    value {
      list {
        shape {
          dim {
            size: 64
          }
        }
      }
    }
  }
  attr {
    key: "container"
    value {
      s: ""
    }
  }
  attr {
    key: "dtype"
    value {
      type: DT_FLOAT
    }
  }
  attr {
    key: "shape"
    value {
      shape {
        dim {
          size: 64
        }
      }
    }
  }
  attr {
    key: "shared_name"
    value {
      s: ""
    }
  }
}
node {
  name: "VDSR/BatchNorm_3/moving_mean/Assign"
  op: "Assign"
  input: "VDSR/BatchNorm_3/moving_mean"
  input: "VDSR/BatchNorm_3/moving_mean/Initializer/zeros"
  attr {
    key: "T"
    value {
      type: DT_FLOAT
    }
  }
  attr {
    key: "_class"
    value {
      list {
        s: "loc:@VDSR/BatchNorm_3/moving_mean"
      }
    }
  }
  attr {
    key: "_output_shapes"
    value {
      list {
        shape {
          dim {
            size: 64
          }
        }
      }
    }
  }
  attr {
    key: "use_locking"
    value {
      b: true
    }
  }
  attr {
    key: "validate_shape"
    value {
      b: true
    }
  }
}
node {
  name: "VDSR/BatchNorm_3/moving_mean/read"
  op: "Identity"
  input: "VDSR/BatchNorm_3/moving_mean"
  attr {
    key: "T"
    value {
      type: DT_FLOAT
    }
  }
  attr {
    key: "_class"
    value {
      list {
        s: "loc:@VDSR/BatchNorm_3/moving_mean"
      }
    }
  }
  attr {
    key: "_output_shapes"
    value {
      list {
        shape {
          dim {
            size: 64
          }
        }
      }
    }
  }
}
node {
  name: "VDSR/BatchNorm_3/moving_variance/Initializer/ones"
  op: "Const"
  attr {
    key: "_class"
    value {
      list {
        s: "loc:@VDSR/BatchNorm_3/moving_variance"
      }
    }
  }
  attr {
    key: "_output_shapes"
    value {
      list {
        shape {
          dim {
            size: 64
          }
        }
      }
    }
  }
  attr {
    key: "dtype"
    value {
      type: DT_FLOAT
    }
  }
  attr {
    key: "value"
    value {
      tensor {
        dtype: DT_FLOAT
        tensor_shape {
          dim {
            size: 64
          }
        }
        float_val: 1.0
      }
    }
  }
}
node {
  name: "VDSR/BatchNorm_3/moving_variance"
  op: "VariableV2"
  attr {
    key: "_class"
    value {
      list {
        s: "loc:@VDSR/BatchNorm_3/moving_variance"
      }
    }
  }
  attr {
    key: "_output_shapes"
    value {
      list {
        shape {
          dim {
            size: 64
          }
        }
      }
    }
  }
  attr {
    key: "container"
    value {
      s: ""
    }
  }
  attr {
    key: "dtype"
    value {
      type: DT_FLOAT
    }
  }
  attr {
    key: "shape"
    value {
      shape {
        dim {
          size: 64
        }
      }
    }
  }
  attr {
    key: "shared_name"
    value {
      s: ""
    }
  }
}
node {
  name: "VDSR/BatchNorm_3/moving_variance/Assign"
  op: "Assign"
  input: "VDSR/BatchNorm_3/moving_variance"
  input: "VDSR/BatchNorm_3/moving_variance/Initializer/ones"
  attr {
    key: "T"
    value {
      type: DT_FLOAT
    }
  }
  attr {
    key: "_class"
    value {
      list {
        s: "loc:@VDSR/BatchNorm_3/moving_variance"
      }
    }
  }
  attr {
    key: "_output_shapes"
    value {
      list {
        shape {
          dim {
            size: 64
          }
        }
      }
    }
  }
  attr {
    key: "use_locking"
    value {
      b: true
    }
  }
  attr {
    key: "validate_shape"
    value {
      b: true
    }
  }
}
node {
  name: "VDSR/BatchNorm_3/moving_variance/read"
  op: "Identity"
  input: "VDSR/BatchNorm_3/moving_variance"
  attr {
    key: "T"
    value {
      type: DT_FLOAT
    }
  }
  attr {
    key: "_class"
    value {
      list {
        s: "loc:@VDSR/BatchNorm_3/moving_variance"
      }
    }
  }
  attr {
    key: "_output_shapes"
    value {
      list {
        shape {
          dim {
            size: 64
          }
        }
      }
    }
  }
}
node {
  name: "VDSR/BatchNorm_3/Const"
  op: "Const"
  attr {
    key: "_output_shapes"
    value {
      list {
        shape {
          dim {
          }
        }
      }
    }
  }
  attr {
    key: "dtype"
    value {
      type: DT_FLOAT
    }
  }
  attr {
    key: "value"
    value {
      tensor {
        dtype: DT_FLOAT
        tensor_shape {
          dim {
          }
        }
      }
    }
  }
}
node {
  name: "VDSR/BatchNorm_3/Const_1"
  op: "Const"
  attr {
    key: "_output_shapes"
    value {
      list {
        shape {
          dim {
          }
        }
      }
    }
  }
  attr {
    key: "dtype"
    value {
      type: DT_FLOAT
    }
  }
  attr {
    key: "value"
    value {
      tensor {
        dtype: DT_FLOAT
        tensor_shape {
          dim {
          }
        }
      }
    }
  }
}
node {
  name: "VDSR/BatchNorm_3/FusedBatchNormV3"
  op: "FusedBatchNormV3"
  input: "VDSR/Conv_3/Relu"
  input: "VDSR/BatchNorm_3/gamma/read"
  input: "VDSR/BatchNorm_3/beta/read"
  input: "VDSR/BatchNorm_3/Const"
  input: "VDSR/BatchNorm_3/Const_1"
  attr {
    key: "T"
    value {
      type: DT_FLOAT
    }
  }
  attr {
    key: "U"
    value {
      type: DT_FLOAT
    }
  }
  attr {
    key: "_output_shapes"
    value {
      list {
        shape {
          dim {
            size: 8
          }
          dim {
            size: 64
          }
          dim {
            size: 64
          }
          dim {
            size: 64
          }
        }
        shape {
          dim {
            size: 64
          }
        }
        shape {
          dim {
            size: 64
          }
        }
        shape {
          dim {
            size: 64
          }
        }
        shape {
          dim {
            size: 64
          }
        }
        shape {
          unknown_rank: true
        }
      }
    }
  }
  attr {
    key: "data_format"
    value {
      s: "NCHW"
    }
  }
  attr {
    key: "epsilon"
    value {
      f: 1.0009999641624745e-05
    }
  }
  attr {
    key: "is_training"
    value {
      b: true
    }
  }
}
node {
  name: "VDSR/BatchNorm_3/AssignMovingAvg/decay"
  op: "Const"
  attr {
    key: "_output_shapes"
    value {
      list {
        shape {
        }
      }
    }
  }
  attr {
    key: "dtype"
    value {
      type: DT_FLOAT
    }
  }
  attr {
    key: "value"
    value {
      tensor {
        dtype: DT_FLOAT
        tensor_shape {
        }
        float_val: 0.10000000149011612
      }
    }
  }
}
node {
  name: "VDSR/BatchNorm_3/AssignMovingAvg/sub"
  op: "Sub"
  input: "VDSR/BatchNorm_3/moving_mean/read"
  input: "VDSR/BatchNorm_3/FusedBatchNormV3:1"
  attr {
    key: "T"
    value {
      type: DT_FLOAT
    }
  }
  attr {
    key: "_output_shapes"
    value {
      list {
        shape {
          dim {
            size: 64
          }
        }
      }
    }
  }
}
node {
  name: "VDSR/BatchNorm_3/AssignMovingAvg/mul"
  op: "Mul"
  input: "VDSR/BatchNorm_3/AssignMovingAvg/sub"
  input: "VDSR/BatchNorm_3/AssignMovingAvg/decay"
  attr {
    key: "T"
    value {
      type: DT_FLOAT
    }
  }
  attr {
    key: "_output_shapes"
    value {
      list {
        shape {
          dim {
            size: 64
          }
        }
      }
    }
  }
}
node {
  name: "VDSR/BatchNorm_3/AssignMovingAvg"
  op: "AssignSub"
  input: "VDSR/BatchNorm_3/moving_mean"
  input: "VDSR/BatchNorm_3/AssignMovingAvg/mul"
  attr {
    key: "T"
    value {
      type: DT_FLOAT
    }
  }
  attr {
    key: "_class"
    value {
      list {
        s: "loc:@VDSR/BatchNorm_3/moving_mean"
      }
    }
  }
  attr {
    key: "_output_shapes"
    value {
      list {
        shape {
          dim {
            size: 64
          }
        }
      }
    }
  }
  attr {
    key: "use_locking"
    value {
      b: false
    }
  }
}
node {
  name: "VDSR/BatchNorm_3/AssignMovingAvg_1/decay"
  op: "Const"
  attr {
    key: "_output_shapes"
    value {
      list {
        shape {
        }
      }
    }
  }
  attr {
    key: "dtype"
    value {
      type: DT_FLOAT
    }
  }
  attr {
    key: "value"
    value {
      tensor {
        dtype: DT_FLOAT
        tensor_shape {
        }
        float_val: 0.10000000149011612
      }
    }
  }
}
node {
  name: "VDSR/BatchNorm_3/AssignMovingAvg_1/sub"
  op: "Sub"
  input: "VDSR/BatchNorm_3/moving_variance/read"
  input: "VDSR/BatchNorm_3/FusedBatchNormV3:2"
  attr {
    key: "T"
    value {
      type: DT_FLOAT
    }
  }
  attr {
    key: "_output_shapes"
    value {
      list {
        shape {
          dim {
            size: 64
          }
        }
      }
    }
  }
}
node {
  name: "VDSR/BatchNorm_3/AssignMovingAvg_1/mul"
  op: "Mul"
  input: "VDSR/BatchNorm_3/AssignMovingAvg_1/sub"
  input: "VDSR/BatchNorm_3/AssignMovingAvg_1/decay"
  attr {
    key: "T"
    value {
      type: DT_FLOAT
    }
  }
  attr {
    key: "_output_shapes"
    value {
      list {
        shape {
          dim {
            size: 64
          }
        }
      }
    }
  }
}
node {
  name: "VDSR/BatchNorm_3/AssignMovingAvg_1"
  op: "AssignSub"
  input: "VDSR/BatchNorm_3/moving_variance"
  input: "VDSR/BatchNorm_3/AssignMovingAvg_1/mul"
  attr {
    key: "T"
    value {
      type: DT_FLOAT
    }
  }
  attr {
    key: "_class"
    value {
      list {
        s: "loc:@VDSR/BatchNorm_3/moving_variance"
      }
    }
  }
  attr {
    key: "_output_shapes"
    value {
      list {
        shape {
          dim {
            size: 64
          }
        }
      }
    }
  }
  attr {
    key: "use_locking"
    value {
      b: false
    }
  }
}
node {
  name: "VDSR/BatchNorm_3/Identity"
  op: "Identity"
  input: "VDSR/BatchNorm_3/FusedBatchNormV3"
  input: "^VDSR/BatchNorm_3/AssignMovingAvg"
  input: "^VDSR/BatchNorm_3/AssignMovingAvg_1"
  attr {
    key: "T"
    value {
      type: DT_FLOAT
    }
  }
  attr {
    key: "_output_shapes"
    value {
      list {
        shape {
          dim {
            size: 8
          }
          dim {
            size: 64
          }
          dim {
            size: 64
          }
          dim {
            size: 64
          }
        }
      }
    }
  }
}
node {
  name: "VDSR/BatchNorm_3/Relu"
  op: "Relu"
  input: "VDSR/BatchNorm_3/Identity"
  attr {
    key: "T"
    value {
      type: DT_FLOAT
    }
  }
  attr {
    key: "_output_shapes"
    value {
      list {
        shape {
          dim {
            size: 8
          }
          dim {
            size: 64
          }
          dim {
            size: 64
          }
          dim {
            size: 64
          }
        }
      }
    }
  }
}
node {
  name: "VDSR/Conv_4/weights/Initializer/random_uniform/shape"
  op: "Const"
  attr {
    key: "_class"
    value {
      list {
        s: "loc:@VDSR/Conv_4/weights"
      }
    }
  }
  attr {
    key: "_output_shapes"
    value {
      list {
        shape {
          dim {
            size: 4
          }
        }
      }
    }
  }
  attr {
    key: "dtype"
    value {
      type: DT_INT32
    }
  }
  attr {
    key: "value"
    value {
      tensor {
        dtype: DT_INT32
        tensor_shape {
          dim {
            size: 4
          }
        }
        tensor_content: "\003\000\000\000\003\000\000\000@\000\000\000@\000\000\000"
      }
    }
  }
}
node {
  name: "VDSR/Conv_4/weights/Initializer/random_uniform/min"
  op: "Const"
  attr {
    key: "_class"
    value {
      list {
        s: "loc:@VDSR/Conv_4/weights"
      }
    }
  }
  attr {
    key: "_output_shapes"
    value {
      list {
        shape {
        }
      }
    }
  }
  attr {
    key: "dtype"
    value {
      type: DT_FLOAT
    }
  }
  attr {
    key: "value"
    value {
      tensor {
        dtype: DT_FLOAT
        tensor_shape {
        }
        float_val: -0.07216878235340118
      }
    }
  }
}
node {
  name: "VDSR/Conv_4/weights/Initializer/random_uniform/max"
  op: "Const"
  attr {
    key: "_class"
    value {
      list {
        s: "loc:@VDSR/Conv_4/weights"
      }
    }
  }
  attr {
    key: "_output_shapes"
    value {
      list {
        shape {
        }
      }
    }
  }
  attr {
    key: "dtype"
    value {
      type: DT_FLOAT
    }
  }
  attr {
    key: "value"
    value {
      tensor {
        dtype: DT_FLOAT
        tensor_shape {
        }
        float_val: 0.07216878235340118
      }
    }
  }
}
node {
  name: "VDSR/Conv_4/weights/Initializer/random_uniform/RandomUniform"
  op: "RandomUniform"
  input: "VDSR/Conv_4/weights/Initializer/random_uniform/shape"
  attr {
    key: "T"
    value {
      type: DT_INT32
    }
  }
  attr {
    key: "_class"
    value {
      list {
        s: "loc:@VDSR/Conv_4/weights"
      }
    }
  }
  attr {
    key: "_output_shapes"
    value {
      list {
        shape {
          dim {
            size: 3
          }
          dim {
            size: 3
          }
          dim {
            size: 64
          }
          dim {
            size: 64
          }
        }
      }
    }
  }
  attr {
    key: "dtype"
    value {
      type: DT_FLOAT
    }
  }
  attr {
    key: "seed"
    value {
      i: 123
    }
  }
  attr {
    key: "seed2"
    value {
      i: 220
    }
  }
}
node {
  name: "VDSR/Conv_4/weights/Initializer/random_uniform/sub"
  op: "Sub"
  input: "VDSR/Conv_4/weights/Initializer/random_uniform/max"
  input: "VDSR/Conv_4/weights/Initializer/random_uniform/min"
  attr {
    key: "T"
    value {
      type: DT_FLOAT
    }
  }
  attr {
    key: "_class"
    value {
      list {
        s: "loc:@VDSR/Conv_4/weights"
      }
    }
  }
  attr {
    key: "_output_shapes"
    value {
      list {
        shape {
        }
      }
    }
  }
}
node {
  name: "VDSR/Conv_4/weights/Initializer/random_uniform/mul"
  op: "Mul"
  input: "VDSR/Conv_4/weights/Initializer/random_uniform/RandomUniform"
  input: "VDSR/Conv_4/weights/Initializer/random_uniform/sub"
  attr {
    key: "T"
    value {
      type: DT_FLOAT
    }
  }
  attr {
    key: "_class"
    value {
      list {
        s: "loc:@VDSR/Conv_4/weights"
      }
    }
  }
  attr {
    key: "_output_shapes"
    value {
      list {
        shape {
          dim {
            size: 3
          }
          dim {
            size: 3
          }
          dim {
            size: 64
          }
          dim {
            size: 64
          }
        }
      }
    }
  }
}
node {
  name: "VDSR/Conv_4/weights/Initializer/random_uniform"
  op: "Add"
  input: "VDSR/Conv_4/weights/Initializer/random_uniform/mul"
  input: "VDSR/Conv_4/weights/Initializer/random_uniform/min"
  attr {
    key: "T"
    value {
      type: DT_FLOAT
    }
  }
  attr {
    key: "_class"
    value {
      list {
        s: "loc:@VDSR/Conv_4/weights"
      }
    }
  }
  attr {
    key: "_output_shapes"
    value {
      list {
        shape {
          dim {
            size: 3
          }
          dim {
            size: 3
          }
          dim {
            size: 64
          }
          dim {
            size: 64
          }
        }
      }
    }
  }
}
node {
  name: "VDSR/Conv_4/weights"
  op: "VariableV2"
  attr {
    key: "_class"
    value {
      list {
        s: "loc:@VDSR/Conv_4/weights"
      }
    }
  }
  attr {
    key: "_output_shapes"
    value {
      list {
        shape {
          dim {
            size: 3
          }
          dim {
            size: 3
          }
          dim {
            size: 64
          }
          dim {
            size: 64
          }
        }
      }
    }
  }
  attr {
    key: "container"
    value {
      s: ""
    }
  }
  attr {
    key: "dtype"
    value {
      type: DT_FLOAT
    }
  }
  attr {
    key: "shape"
    value {
      shape {
        dim {
          size: 3
        }
        dim {
          size: 3
        }
        dim {
          size: 64
        }
        dim {
          size: 64
        }
      }
    }
  }
  attr {
    key: "shared_name"
    value {
      s: ""
    }
  }
}
node {
  name: "VDSR/Conv_4/weights/Assign"
  op: "Assign"
  input: "VDSR/Conv_4/weights"
  input: "VDSR/Conv_4/weights/Initializer/random_uniform"
  attr {
    key: "T"
    value {
      type: DT_FLOAT
    }
  }
  attr {
    key: "_class"
    value {
      list {
        s: "loc:@VDSR/Conv_4/weights"
      }
    }
  }
  attr {
    key: "_output_shapes"
    value {
      list {
        shape {
          dim {
            size: 3
          }
          dim {
            size: 3
          }
          dim {
            size: 64
          }
          dim {
            size: 64
          }
        }
      }
    }
  }
  attr {
    key: "use_locking"
    value {
      b: true
    }
  }
  attr {
    key: "validate_shape"
    value {
      b: true
    }
  }
}
node {
  name: "VDSR/Conv_4/weights/read"
  op: "Identity"
  input: "VDSR/Conv_4/weights"
  attr {
    key: "T"
    value {
      type: DT_FLOAT
    }
  }
  attr {
    key: "_class"
    value {
      list {
        s: "loc:@VDSR/Conv_4/weights"
      }
    }
  }
  attr {
    key: "_output_shapes"
    value {
      list {
        shape {
          dim {
            size: 3
          }
          dim {
            size: 3
          }
          dim {
            size: 64
          }
          dim {
            size: 64
          }
        }
      }
    }
  }
}
node {
  name: "VDSR/Conv_4/biases/Initializer/zeros"
  op: "Const"
  attr {
    key: "_class"
    value {
      list {
        s: "loc:@VDSR/Conv_4/biases"
      }
    }
  }
  attr {
    key: "_output_shapes"
    value {
      list {
        shape {
          dim {
            size: 64
          }
        }
      }
    }
  }
  attr {
    key: "dtype"
    value {
      type: DT_FLOAT
    }
  }
  attr {
    key: "value"
    value {
      tensor {
        dtype: DT_FLOAT
        tensor_shape {
          dim {
            size: 64
          }
        }
        float_val: 0.0
      }
    }
  }
}
node {
  name: "VDSR/Conv_4/biases"
  op: "VariableV2"
  attr {
    key: "_class"
    value {
      list {
        s: "loc:@VDSR/Conv_4/biases"
      }
    }
  }
  attr {
    key: "_output_shapes"
    value {
      list {
        shape {
          dim {
            size: 64
          }
        }
      }
    }
  }
  attr {
    key: "container"
    value {
      s: ""
    }
  }
  attr {
    key: "dtype"
    value {
      type: DT_FLOAT
    }
  }
  attr {
    key: "shape"
    value {
      shape {
        dim {
          size: 64
        }
      }
    }
  }
  attr {
    key: "shared_name"
    value {
      s: ""
    }
  }
}
node {
  name: "VDSR/Conv_4/biases/Assign"
  op: "Assign"
  input: "VDSR/Conv_4/biases"
  input: "VDSR/Conv_4/biases/Initializer/zeros"
  attr {
    key: "T"
    value {
      type: DT_FLOAT
    }
  }
  attr {
    key: "_class"
    value {
      list {
        s: "loc:@VDSR/Conv_4/biases"
      }
    }
  }
  attr {
    key: "_output_shapes"
    value {
      list {
        shape {
          dim {
            size: 64
          }
        }
      }
    }
  }
  attr {
    key: "use_locking"
    value {
      b: true
    }
  }
  attr {
    key: "validate_shape"
    value {
      b: true
    }
  }
}
node {
  name: "VDSR/Conv_4/biases/read"
  op: "Identity"
  input: "VDSR/Conv_4/biases"
  attr {
    key: "T"
    value {
      type: DT_FLOAT
    }
  }
  attr {
    key: "_class"
    value {
      list {
        s: "loc:@VDSR/Conv_4/biases"
      }
    }
  }
  attr {
    key: "_output_shapes"
    value {
      list {
        shape {
          dim {
            size: 64
          }
        }
      }
    }
  }
}
node {
  name: "VDSR/Conv_4/dilation_rate"
  op: "Const"
  attr {
    key: "_output_shapes"
    value {
      list {
        shape {
          dim {
            size: 2
          }
        }
      }
    }
  }
  attr {
    key: "dtype"
    value {
      type: DT_INT32
    }
  }
  attr {
    key: "value"
    value {
      tensor {
        dtype: DT_INT32
        tensor_shape {
          dim {
            size: 2
          }
        }
        tensor_content: "\001\000\000\000\001\000\000\000"
      }
    }
  }
}
node {
  name: "VDSR/Conv_4/Conv2D"
  op: "Conv2D"
  input: "VDSR/BatchNorm_3/Relu"
  input: "VDSR/Conv_4/weights/read"
  attr {
    key: "T"
    value {
      type: DT_FLOAT
    }
  }
  attr {
    key: "_output_shapes"
    value {
      list {
        shape {
          dim {
            size: 8
          }
          dim {
            size: 64
          }
          dim {
            size: 64
          }
          dim {
            size: 64
          }
        }
      }
    }
  }
  attr {
    key: "data_format"
    value {
      s: "NCHW"
    }
  }
  attr {
    key: "dilations"
    value {
      list {
        i: 1
        i: 1
        i: 1
        i: 1
      }
    }
  }
  attr {
    key: "explicit_paddings"
    value {
      list {
      }
    }
  }
  attr {
    key: "padding"
    value {
      s: "SAME"
    }
  }
  attr {
    key: "strides"
    value {
      list {
        i: 1
        i: 1
        i: 1
        i: 1
      }
    }
  }
  attr {
    key: "use_cudnn_on_gpu"
    value {
      b: true
    }
  }
}
node {
  name: "VDSR/Conv_4/BiasAdd"
  op: "BiasAdd"
  input: "VDSR/Conv_4/Conv2D"
  input: "VDSR/Conv_4/biases/read"
  attr {
    key: "T"
    value {
      type: DT_FLOAT
    }
  }
  attr {
    key: "_output_shapes"
    value {
      list {
        shape {
          dim {
            size: 8
          }
          dim {
            size: 64
          }
          dim {
            size: 64
          }
          dim {
            size: 64
          }
        }
      }
    }
  }
  attr {
    key: "data_format"
    value {
      s: "NCHW"
    }
  }
}
node {
  name: "VDSR/Conv_4/Relu"
  op: "Relu"
  input: "VDSR/Conv_4/BiasAdd"
  attr {
    key: "T"
    value {
      type: DT_FLOAT
    }
  }
  attr {
    key: "_output_shapes"
    value {
      list {
        shape {
          dim {
            size: 8
          }
          dim {
            size: 64
          }
          dim {
            size: 64
          }
          dim {
            size: 64
          }
        }
      }
    }
  }
}
node {
  name: "VDSR/BatchNorm_4/beta/Initializer/zeros"
  op: "Const"
  attr {
    key: "_class"
    value {
      list {
        s: "loc:@VDSR/BatchNorm_4/beta"
      }
    }
  }
  attr {
    key: "_output_shapes"
    value {
      list {
        shape {
          dim {
            size: 64
          }
        }
      }
    }
  }
  attr {
    key: "dtype"
    value {
      type: DT_FLOAT
    }
  }
  attr {
    key: "value"
    value {
      tensor {
        dtype: DT_FLOAT
        tensor_shape {
          dim {
            size: 64
          }
        }
        float_val: 0.0
      }
    }
  }
}
node {
  name: "VDSR/BatchNorm_4/beta"
  op: "VariableV2"
  attr {
    key: "_class"
    value {
      list {
        s: "loc:@VDSR/BatchNorm_4/beta"
      }
    }
  }
  attr {
    key: "_output_shapes"
    value {
      list {
        shape {
          dim {
            size: 64
          }
        }
      }
    }
  }
  attr {
    key: "container"
    value {
      s: ""
    }
  }
  attr {
    key: "dtype"
    value {
      type: DT_FLOAT
    }
  }
  attr {
    key: "shape"
    value {
      shape {
        dim {
          size: 64
        }
      }
    }
  }
  attr {
    key: "shared_name"
    value {
      s: ""
    }
  }
}
node {
  name: "VDSR/BatchNorm_4/beta/Assign"
  op: "Assign"
  input: "VDSR/BatchNorm_4/beta"
  input: "VDSR/BatchNorm_4/beta/Initializer/zeros"
  attr {
    key: "T"
    value {
      type: DT_FLOAT
    }
  }
  attr {
    key: "_class"
    value {
      list {
        s: "loc:@VDSR/BatchNorm_4/beta"
      }
    }
  }
  attr {
    key: "_output_shapes"
    value {
      list {
        shape {
          dim {
            size: 64
          }
        }
      }
    }
  }
  attr {
    key: "use_locking"
    value {
      b: true
    }
  }
  attr {
    key: "validate_shape"
    value {
      b: true
    }
  }
}
node {
  name: "VDSR/BatchNorm_4/beta/read"
  op: "Identity"
  input: "VDSR/BatchNorm_4/beta"
  attr {
    key: "T"
    value {
      type: DT_FLOAT
    }
  }
  attr {
    key: "_class"
    value {
      list {
        s: "loc:@VDSR/BatchNorm_4/beta"
      }
    }
  }
  attr {
    key: "_output_shapes"
    value {
      list {
        shape {
          dim {
            size: 64
          }
        }
      }
    }
  }
}
node {
  name: "VDSR/BatchNorm_4/gamma/Initializer/ones"
  op: "Const"
  attr {
    key: "_class"
    value {
      list {
        s: "loc:@VDSR/BatchNorm_4/gamma"
      }
    }
  }
  attr {
    key: "_output_shapes"
    value {
      list {
        shape {
          dim {
            size: 64
          }
        }
      }
    }
  }
  attr {
    key: "dtype"
    value {
      type: DT_FLOAT
    }
  }
  attr {
    key: "value"
    value {
      tensor {
        dtype: DT_FLOAT
        tensor_shape {
          dim {
            size: 64
          }
        }
        float_val: 1.0
      }
    }
  }
}
node {
  name: "VDSR/BatchNorm_4/gamma"
  op: "VariableV2"
  attr {
    key: "_class"
    value {
      list {
        s: "loc:@VDSR/BatchNorm_4/gamma"
      }
    }
  }
  attr {
    key: "_output_shapes"
    value {
      list {
        shape {
          dim {
            size: 64
          }
        }
      }
    }
  }
  attr {
    key: "container"
    value {
      s: ""
    }
  }
  attr {
    key: "dtype"
    value {
      type: DT_FLOAT
    }
  }
  attr {
    key: "shape"
    value {
      shape {
        dim {
          size: 64
        }
      }
    }
  }
  attr {
    key: "shared_name"
    value {
      s: ""
    }
  }
}
node {
  name: "VDSR/BatchNorm_4/gamma/Assign"
  op: "Assign"
  input: "VDSR/BatchNorm_4/gamma"
  input: "VDSR/BatchNorm_4/gamma/Initializer/ones"
  attr {
    key: "T"
    value {
      type: DT_FLOAT
    }
  }
  attr {
    key: "_class"
    value {
      list {
        s: "loc:@VDSR/BatchNorm_4/gamma"
      }
    }
  }
  attr {
    key: "_output_shapes"
    value {
      list {
        shape {
          dim {
            size: 64
          }
        }
      }
    }
  }
  attr {
    key: "use_locking"
    value {
      b: true
    }
  }
  attr {
    key: "validate_shape"
    value {
      b: true
    }
  }
}
node {
  name: "VDSR/BatchNorm_4/gamma/read"
  op: "Identity"
  input: "VDSR/BatchNorm_4/gamma"
  attr {
    key: "T"
    value {
      type: DT_FLOAT
    }
  }
  attr {
    key: "_class"
    value {
      list {
        s: "loc:@VDSR/BatchNorm_4/gamma"
      }
    }
  }
  attr {
    key: "_output_shapes"
    value {
      list {
        shape {
          dim {
            size: 64
          }
        }
      }
    }
  }
}
node {
  name: "VDSR/BatchNorm_4/moving_mean/Initializer/zeros"
  op: "Const"
  attr {
    key: "_class"
    value {
      list {
        s: "loc:@VDSR/BatchNorm_4/moving_mean"
      }
    }
  }
  attr {
    key: "_output_shapes"
    value {
      list {
        shape {
          dim {
            size: 64
          }
        }
      }
    }
  }
  attr {
    key: "dtype"
    value {
      type: DT_FLOAT
    }
  }
  attr {
    key: "value"
    value {
      tensor {
        dtype: DT_FLOAT
        tensor_shape {
          dim {
            size: 64
          }
        }
        float_val: 0.0
      }
    }
  }
}
node {
  name: "VDSR/BatchNorm_4/moving_mean"
  op: "VariableV2"
  attr {
    key: "_class"
    value {
      list {
        s: "loc:@VDSR/BatchNorm_4/moving_mean"
      }
    }
  }
  attr {
    key: "_output_shapes"
    value {
      list {
        shape {
          dim {
            size: 64
          }
        }
      }
    }
  }
  attr {
    key: "container"
    value {
      s: ""
    }
  }
  attr {
    key: "dtype"
    value {
      type: DT_FLOAT
    }
  }
  attr {
    key: "shape"
    value {
      shape {
        dim {
          size: 64
        }
      }
    }
  }
  attr {
    key: "shared_name"
    value {
      s: ""
    }
  }
}
node {
  name: "VDSR/BatchNorm_4/moving_mean/Assign"
  op: "Assign"
  input: "VDSR/BatchNorm_4/moving_mean"
  input: "VDSR/BatchNorm_4/moving_mean/Initializer/zeros"
  attr {
    key: "T"
    value {
      type: DT_FLOAT
    }
  }
  attr {
    key: "_class"
    value {
      list {
        s: "loc:@VDSR/BatchNorm_4/moving_mean"
      }
    }
  }
  attr {
    key: "_output_shapes"
    value {
      list {
        shape {
          dim {
            size: 64
          }
        }
      }
    }
  }
  attr {
    key: "use_locking"
    value {
      b: true
    }
  }
  attr {
    key: "validate_shape"
    value {
      b: true
    }
  }
}
node {
  name: "VDSR/BatchNorm_4/moving_mean/read"
  op: "Identity"
  input: "VDSR/BatchNorm_4/moving_mean"
  attr {
    key: "T"
    value {
      type: DT_FLOAT
    }
  }
  attr {
    key: "_class"
    value {
      list {
        s: "loc:@VDSR/BatchNorm_4/moving_mean"
      }
    }
  }
  attr {
    key: "_output_shapes"
    value {
      list {
        shape {
          dim {
            size: 64
          }
        }
      }
    }
  }
}
node {
  name: "VDSR/BatchNorm_4/moving_variance/Initializer/ones"
  op: "Const"
  attr {
    key: "_class"
    value {
      list {
        s: "loc:@VDSR/BatchNorm_4/moving_variance"
      }
    }
  }
  attr {
    key: "_output_shapes"
    value {
      list {
        shape {
          dim {
            size: 64
          }
        }
      }
    }
  }
  attr {
    key: "dtype"
    value {
      type: DT_FLOAT
    }
  }
  attr {
    key: "value"
    value {
      tensor {
        dtype: DT_FLOAT
        tensor_shape {
          dim {
            size: 64
          }
        }
        float_val: 1.0
      }
    }
  }
}
node {
  name: "VDSR/BatchNorm_4/moving_variance"
  op: "VariableV2"
  attr {
    key: "_class"
    value {
      list {
        s: "loc:@VDSR/BatchNorm_4/moving_variance"
      }
    }
  }
  attr {
    key: "_output_shapes"
    value {
      list {
        shape {
          dim {
            size: 64
          }
        }
      }
    }
  }
  attr {
    key: "container"
    value {
      s: ""
    }
  }
  attr {
    key: "dtype"
    value {
      type: DT_FLOAT
    }
  }
  attr {
    key: "shape"
    value {
      shape {
        dim {
          size: 64
        }
      }
    }
  }
  attr {
    key: "shared_name"
    value {
      s: ""
    }
  }
}
node {
  name: "VDSR/BatchNorm_4/moving_variance/Assign"
  op: "Assign"
  input: "VDSR/BatchNorm_4/moving_variance"
  input: "VDSR/BatchNorm_4/moving_variance/Initializer/ones"
  attr {
    key: "T"
    value {
      type: DT_FLOAT
    }
  }
  attr {
    key: "_class"
    value {
      list {
        s: "loc:@VDSR/BatchNorm_4/moving_variance"
      }
    }
  }
  attr {
    key: "_output_shapes"
    value {
      list {
        shape {
          dim {
            size: 64
          }
        }
      }
    }
  }
  attr {
    key: "use_locking"
    value {
      b: true
    }
  }
  attr {
    key: "validate_shape"
    value {
      b: true
    }
  }
}
node {
  name: "VDSR/BatchNorm_4/moving_variance/read"
  op: "Identity"
  input: "VDSR/BatchNorm_4/moving_variance"
  attr {
    key: "T"
    value {
      type: DT_FLOAT
    }
  }
  attr {
    key: "_class"
    value {
      list {
        s: "loc:@VDSR/BatchNorm_4/moving_variance"
      }
    }
  }
  attr {
    key: "_output_shapes"
    value {
      list {
        shape {
          dim {
            size: 64
          }
        }
      }
    }
  }
}
node {
  name: "VDSR/BatchNorm_4/Const"
  op: "Const"
  attr {
    key: "_output_shapes"
    value {
      list {
        shape {
          dim {
          }
        }
      }
    }
  }
  attr {
    key: "dtype"
    value {
      type: DT_FLOAT
    }
  }
  attr {
    key: "value"
    value {
      tensor {
        dtype: DT_FLOAT
        tensor_shape {
          dim {
          }
        }
      }
    }
  }
}
node {
  name: "VDSR/BatchNorm_4/Const_1"
  op: "Const"
  attr {
    key: "_output_shapes"
    value {
      list {
        shape {
          dim {
          }
        }
      }
    }
  }
  attr {
    key: "dtype"
    value {
      type: DT_FLOAT
    }
  }
  attr {
    key: "value"
    value {
      tensor {
        dtype: DT_FLOAT
        tensor_shape {
          dim {
          }
        }
      }
    }
  }
}
node {
  name: "VDSR/BatchNorm_4/FusedBatchNormV3"
  op: "FusedBatchNormV3"
  input: "VDSR/Conv_4/Relu"
  input: "VDSR/BatchNorm_4/gamma/read"
  input: "VDSR/BatchNorm_4/beta/read"
  input: "VDSR/BatchNorm_4/Const"
  input: "VDSR/BatchNorm_4/Const_1"
  attr {
    key: "T"
    value {
      type: DT_FLOAT
    }
  }
  attr {
    key: "U"
    value {
      type: DT_FLOAT
    }
  }
  attr {
    key: "_output_shapes"
    value {
      list {
        shape {
          dim {
            size: 8
          }
          dim {
            size: 64
          }
          dim {
            size: 64
          }
          dim {
            size: 64
          }
        }
        shape {
          dim {
            size: 64
          }
        }
        shape {
          dim {
            size: 64
          }
        }
        shape {
          dim {
            size: 64
          }
        }
        shape {
          dim {
            size: 64
          }
        }
        shape {
          unknown_rank: true
        }
      }
    }
  }
  attr {
    key: "data_format"
    value {
      s: "NCHW"
    }
  }
  attr {
    key: "epsilon"
    value {
      f: 1.0009999641624745e-05
    }
  }
  attr {
    key: "is_training"
    value {
      b: true
    }
  }
}
node {
  name: "VDSR/BatchNorm_4/AssignMovingAvg/decay"
  op: "Const"
  attr {
    key: "_output_shapes"
    value {
      list {
        shape {
        }
      }
    }
  }
  attr {
    key: "dtype"
    value {
      type: DT_FLOAT
    }
  }
  attr {
    key: "value"
    value {
      tensor {
        dtype: DT_FLOAT
        tensor_shape {
        }
        float_val: 0.10000000149011612
      }
    }
  }
}
node {
  name: "VDSR/BatchNorm_4/AssignMovingAvg/sub"
  op: "Sub"
  input: "VDSR/BatchNorm_4/moving_mean/read"
  input: "VDSR/BatchNorm_4/FusedBatchNormV3:1"
  attr {
    key: "T"
    value {
      type: DT_FLOAT
    }
  }
  attr {
    key: "_output_shapes"
    value {
      list {
        shape {
          dim {
            size: 64
          }
        }
      }
    }
  }
}
node {
  name: "VDSR/BatchNorm_4/AssignMovingAvg/mul"
  op: "Mul"
  input: "VDSR/BatchNorm_4/AssignMovingAvg/sub"
  input: "VDSR/BatchNorm_4/AssignMovingAvg/decay"
  attr {
    key: "T"
    value {
      type: DT_FLOAT
    }
  }
  attr {
    key: "_output_shapes"
    value {
      list {
        shape {
          dim {
            size: 64
          }
        }
      }
    }
  }
}
node {
  name: "VDSR/BatchNorm_4/AssignMovingAvg"
  op: "AssignSub"
  input: "VDSR/BatchNorm_4/moving_mean"
  input: "VDSR/BatchNorm_4/AssignMovingAvg/mul"
  attr {
    key: "T"
    value {
      type: DT_FLOAT
    }
  }
  attr {
    key: "_class"
    value {
      list {
        s: "loc:@VDSR/BatchNorm_4/moving_mean"
      }
    }
  }
  attr {
    key: "_output_shapes"
    value {
      list {
        shape {
          dim {
            size: 64
          }
        }
      }
    }
  }
  attr {
    key: "use_locking"
    value {
      b: false
    }
  }
}
node {
  name: "VDSR/BatchNorm_4/AssignMovingAvg_1/decay"
  op: "Const"
  attr {
    key: "_output_shapes"
    value {
      list {
        shape {
        }
      }
    }
  }
  attr {
    key: "dtype"
    value {
      type: DT_FLOAT
    }
  }
  attr {
    key: "value"
    value {
      tensor {
        dtype: DT_FLOAT
        tensor_shape {
        }
        float_val: 0.10000000149011612
      }
    }
  }
}
node {
  name: "VDSR/BatchNorm_4/AssignMovingAvg_1/sub"
  op: "Sub"
  input: "VDSR/BatchNorm_4/moving_variance/read"
  input: "VDSR/BatchNorm_4/FusedBatchNormV3:2"
  attr {
    key: "T"
    value {
      type: DT_FLOAT
    }
  }
  attr {
    key: "_output_shapes"
    value {
      list {
        shape {
          dim {
            size: 64
          }
        }
      }
    }
  }
}
node {
  name: "VDSR/BatchNorm_4/AssignMovingAvg_1/mul"
  op: "Mul"
  input: "VDSR/BatchNorm_4/AssignMovingAvg_1/sub"
  input: "VDSR/BatchNorm_4/AssignMovingAvg_1/decay"
  attr {
    key: "T"
    value {
      type: DT_FLOAT
    }
  }
  attr {
    key: "_output_shapes"
    value {
      list {
        shape {
          dim {
            size: 64
          }
        }
      }
    }
  }
}
node {
  name: "VDSR/BatchNorm_4/AssignMovingAvg_1"
  op: "AssignSub"
  input: "VDSR/BatchNorm_4/moving_variance"
  input: "VDSR/BatchNorm_4/AssignMovingAvg_1/mul"
  attr {
    key: "T"
    value {
      type: DT_FLOAT
    }
  }
  attr {
    key: "_class"
    value {
      list {
        s: "loc:@VDSR/BatchNorm_4/moving_variance"
      }
    }
  }
  attr {
    key: "_output_shapes"
    value {
      list {
        shape {
          dim {
            size: 64
          }
        }
      }
    }
  }
  attr {
    key: "use_locking"
    value {
      b: false
    }
  }
}
node {
  name: "VDSR/BatchNorm_4/Identity"
  op: "Identity"
  input: "VDSR/BatchNorm_4/FusedBatchNormV3"
  input: "^VDSR/BatchNorm_4/AssignMovingAvg"
  input: "^VDSR/BatchNorm_4/AssignMovingAvg_1"
  attr {
    key: "T"
    value {
      type: DT_FLOAT
    }
  }
  attr {
    key: "_output_shapes"
    value {
      list {
        shape {
          dim {
            size: 8
          }
          dim {
            size: 64
          }
          dim {
            size: 64
          }
…
  input: "report_uninitialized_variables/IsVariableInitialized_192"
  input: "report_uninitialized_variables/IsVariableInitialized_193"
  input: "report_uninitialized_variables/IsVariableInitialized_194"
  input: "report_uninitialized_variables/IsVariableInitialized_195"
  input: "report_uninitialized_variables/IsVariableInitialized_196"
  input: "report_uninitialized_variables/IsVariableInitialized_197"
  input: "report_uninitialized_variables/IsVariableInitialized_198"
  input: "report_uninitialized_variables/IsVariableInitialized_199"
  input: "report_uninitialized_variables/IsVariableInitialized_200"
  input: "report_uninitialized_variables/IsVariableInitialized_201"
  input: "report_uninitialized_variables/IsVariableInitialized_202"
  input: "report_uninitialized_variables/IsVariableInitialized_203"
  input: "report_uninitialized_variables/IsVariableInitialized_204"
  input: "report_uninitialized_variables/IsVariableInitialized_205"
  input: "report_uninitialized_variables/IsVariableInitialized_206"
  input: "report_uninitialized_variables/IsVariableInitialized_207"
  input: "report_uninitialized_variables/IsVariableInitialized_208"
  input: "report_uninitialized_variables/IsVariableInitialized_209"
  input: "report_uninitialized_variables/IsVariableInitialized_210"
  input: "report_uninitialized_variables/IsVariableInitialized_211"
  input: "report_uninitialized_variables/IsVariableInitialized_212"
  input: "report_uninitialized_variables/IsVariableInitialized_213"
  input: "report_uninitialized_variables/IsVariableInitialized_214"
  input: "report_uninitialized_variables/IsVariableInitialized_215"
  input: "report_uninitialized_variables/IsVariableInitialized_216"
  input: "report_uninitialized_variables/IsVariableInitialized_217"
  input: "report_uninitialized_variables/IsVariableInitialized_218"
  input: "report_uninitialized_variables/IsVariableInitialized_219"
  input: "report_uninitialized_variables/IsVariableInitialized_220"
  input: "report_uninitialized_variables/IsVariableInitialized_221"
  input: "report_uninitialized_variables/IsVariableInitialized_222"
  input: "report_uninitialized_variables/IsVariableInitialized_223"
  input: "report_uninitialized_variables/IsVariableInitialized_224"
  input: "report_uninitialized_variables/IsVariableInitialized_225"
  input: "report_uninitialized_variables/IsVariableInitialized_226"
  input: "report_uninitialized_variables/IsVariableInitialized_227"
  input: "report_uninitialized_variables/IsVariableInitialized_228"
  input: "report_uninitialized_variables/IsVariableInitialized_229"
  input: "report_uninitialized_variables/IsVariableInitialized_230"
  input: "report_uninitialized_variables/IsVariableInitialized_231"
  input: "report_uninitialized_variables/IsVariableInitialized_232"
  input: "report_uninitialized_variables/IsVariableInitialized_233"
  input: "report_uninitialized_variables/IsVariableInitialized_234"
  input: "report_uninitialized_variables/IsVariableInitialized_235"
  input: "report_uninitialized_variables/IsVariableInitialized_236"
  input: "report_uninitialized_variables/IsVariableInitialized_237"
  input: "report_uninitialized_variables/IsVariableInitialized_238"
  input: "report_uninitialized_variables/IsVariableInitialized_239"
  input: "report_uninitialized_variables/IsVariableInitialized_240"
  input: "report_uninitialized_variables/IsVariableInitialized_241"
  input: "report_uninitialized_variables/IsVariableInitialized_242"
  input: "report_uninitialized_variables/IsVariableInitialized_243"
  input: "report_uninitialized_variables/IsVariableInitialized_244"
  input: "report_uninitialized_variables/IsVariableInitialized_245"
  input: "report_uninitialized_variables/IsVariableInitialized_246"
  input: "report_uninitialized_variables/IsVariableInitialized_247"
  input: "report_uninitialized_variables/IsVariableInitialized_248"
  input: "report_uninitialized_variables/IsVariableInitialized_249"
  input: "report_uninitialized_variables/IsVariableInitialized_250"
  input: "report_uninitialized_variables/IsVariableInitialized_251"
  input: "report_uninitialized_variables/IsVariableInitialized_252"
  input: "report_uninitialized_variables/IsVariableInitialized_253"
  input: "report_uninitialized_variables/IsVariableInitialized_254"
  input: "report_uninitialized_variables/IsVariableInitialized_255"
  input: "report_uninitialized_variables/IsVariableInitialized_256"
  input: "report_uninitialized_variables/IsVariableInitialized_257"
  input: "report_uninitialized_variables/IsVariableInitialized_258"
  input: "report_uninitialized_variables/IsVariableInitialized_259"
  input: "report_uninitialized_variables/IsVariableInitialized_260"
  input: "report_uninitialized_variables/IsVariableInitialized_261"
  input: "report_uninitialized_variables/IsVariableInitialized_262"
  input: "report_uninitialized_variables/IsVariableInitialized_263"
  input: "report_uninitialized_variables/IsVariableInitialized_264"
  input: "report_uninitialized_variables/IsVariableInitialized_265"
  input: "report_uninitialized_variables/IsVariableInitialized_266"
  input: "report_uninitialized_variables/IsVariableInitialized_267"
  input: "report_uninitialized_variables/IsVariableInitialized_268"
  input: "report_uninitialized_variables/IsVariableInitialized_269"
  input: "report_uninitialized_variables/IsVariableInitialized_270"
  input: "report_uninitialized_variables/IsVariableInitialized_271"
  input: "report_uninitialized_variables/IsVariableInitialized_272"
  input: "report_uninitialized_variables/IsVariableInitialized_273"
  input: "report_uninitialized_variables/IsVariableInitialized_274"
  input: "report_uninitialized_variables/IsVariableInitialized_275"
  input: "report_uninitialized_variables/IsVariableInitialized_276"
  input: "report_uninitialized_variables/IsVariableInitialized_277"
  input: "report_uninitialized_variables/IsVariableInitialized_278"
  input: "report_uninitialized_variables/IsVariableInitialized_279"
  input: "report_uninitialized_variables/IsVariableInitialized_280"
  input: "report_uninitialized_variables/IsVariableInitialized_281"
  input: "report_uninitialized_variables/IsVariableInitialized_282"
  input: "report_uninitialized_variables/IsVariableInitialized_283"
  device: "/device:CPU:0"
  attr {
    key: "N"
    value {
      i: 284
    }
  }
  attr {
    key: "T"
    value {
      type: DT_BOOL
    }
  }
  attr {
    key: "_output_shapes"
    value {
      list {
        shape {
          dim {
            size: 284
          }
        }
      }
    }
  }
  attr {
    key: "axis"
    value {
      i: 0
    }
  }
}
node {
  name: "report_uninitialized_variables/LogicalNot"
  op: "LogicalNot"
  input: "report_uninitialized_variables/stack"
  device: "/device:CPU:0"
  attr {
    key: "_output_shapes"
    value {
      list {
        shape {
          dim {
            size: 284
          }
        }
      }
    }
  }
}
node {
  name: "report_uninitialized_variables/Const"
  op: "Const"
  device: "/device:CPU:0"
  attr {
    key: "_output_shapes"
    value {
      list {
        shape {
          dim {
            size: 284
          }
        }
      }
    }
  }
  attr {
    key: "dtype"
    value {
      type: DT_STRING
    }
  }
  attr {
    key: "value"
    value {
      tensor {
        dtype: DT_STRING
        tensor_shape {
          dim {
            size: 284
          }
        }
        string_val: "lr"
        string_val: "step"
        string_val: "VDSR/Conv/weights"
        string_val: "VDSR/Conv/biases"
        string_val: "VDSR/BatchNorm/beta"
        string_val: "VDSR/BatchNorm/gamma"
        string_val: "VDSR/BatchNorm/moving_mean"
        string_val: "VDSR/BatchNorm/moving_variance"
        string_val: "VDSR/Conv_1/weights"
        string_val: "VDSR/Conv_1/biases"
        string_val: "VDSR/BatchNorm_1/beta"
        string_val: "VDSR/BatchNorm_1/gamma"
        string_val: "VDSR/BatchNorm_1/moving_mean"
        string_val: "VDSR/BatchNorm_1/moving_variance"
        string_val: "VDSR/Conv_2/weights"
        string_val: "VDSR/Conv_2/biases"
        string_val: "VDSR/BatchNorm_2/beta"
        string_val: "VDSR/BatchNorm_2/gamma"
        string_val: "VDSR/BatchNorm_2/moving_mean"
        string_val: "VDSR/BatchNorm_2/moving_variance"
        string_val: "VDSR/Conv_3/weights"
        string_val: "VDSR/Conv_3/biases"
        string_val: "VDSR/BatchNorm_3/beta"
        string_val: "VDSR/BatchNorm_3/gamma"
        string_val: "VDSR/BatchNorm_3/moving_mean"
        string_val: "VDSR/BatchNorm_3/moving_variance"
        string_val: "VDSR/Conv_4/weights"
        string_val: "VDSR/Conv_4/biases"
        string_val: "VDSR/BatchNorm_4/beta"
        string_val: "VDSR/BatchNorm_4/gamma"
        string_val: "VDSR/BatchNorm_4/moving_mean"
        string_val: "VDSR/BatchNorm_4/moving_variance"
        string_val: "VDSR/Conv_5/weights"
        string_val: "VDSR/Conv_5/biases"
        string_val: "VDSR/BatchNorm_5/beta"
        string_val: "VDSR/BatchNorm_5/gamma"
        string_val: "VDSR/BatchNorm_5/moving_mean"
        string_val: "VDSR/BatchNorm_5/moving_variance"
        string_val: "VDSR/Conv_6/weights"
        string_val: "VDSR/Conv_6/biases"
        string_val: "VDSR/BatchNorm_6/beta"
        string_val: "VDSR/BatchNorm_6/gamma"
        string_val: "VDSR/BatchNorm_6/moving_mean"
        string_val: "VDSR/BatchNorm_6/moving_variance"
        string_val: "VDSR/Conv_7/weights"
        string_val: "VDSR/Conv_7/biases"
        string_val: "VDSR/BatchNorm_7/beta"
        string_val: "VDSR/BatchNorm_7/gamma"
        string_val: "VDSR/BatchNorm_7/moving_mean"
        string_val: "VDSR/BatchNorm_7/moving_variance"
        string_val: "VDSR/Conv_8/weights"
        string_val: "VDSR/Conv_8/biases"
        string_val: "VDSR/BatchNorm_8/beta"
        string_val: "VDSR/BatchNorm_8/gamma"
        string_val: "VDSR/BatchNorm_8/moving_mean"
        string_val: "VDSR/BatchNorm_8/moving_variance"
        string_val: "VDSR/Conv_9/weights"
        string_val: "VDSR/Conv_9/biases"
        string_val: "VDSR/BatchNorm_9/beta"
        string_val: "VDSR/BatchNorm_9/gamma"
        string_val: "VDSR/BatchNorm_9/moving_mean"
        string_val: "VDSR/BatchNorm_9/moving_variance"
        string_val: "VDSR/Conv_10/weights"
        string_val: "VDSR/Conv_10/biases"
        string_val: "VDSR/BatchNorm_10/beta"
        string_val: "VDSR/BatchNorm_10/gamma"
        string_val: "VDSR/BatchNorm_10/moving_mean"
        string_val: "VDSR/BatchNorm_10/moving_variance"
        string_val: "VDSR/Conv_11/weights"
        string_val: "VDSR/Conv_11/biases"
        string_val: "VDSR/BatchNorm_11/beta"
        string_val: "VDSR/BatchNorm_11/gamma"
        string_val: "VDSR/BatchNorm_11/moving_mean"
        string_val: "VDSR/BatchNorm_11/moving_variance"
        string_val: "VDSR/Conv_12/weights"
        string_val: "VDSR/Conv_12/biases"
        string_val: "VDSR/BatchNorm_12/beta"
        string_val: "VDSR/BatchNorm_12/gamma"
        string_val: "VDSR/BatchNorm_12/moving_mean"
        string_val: "VDSR/BatchNorm_12/moving_variance"
        string_val: "VDSR/Conv_13/weights"
        string_val: "VDSR/Conv_13/biases"
        string_val: "VDSR/BatchNorm_13/beta"
        string_val: "VDSR/BatchNorm_13/gamma"
        string_val: "VDSR/BatchNorm_13/moving_mean"
        string_val: "VDSR/BatchNorm_13/moving_variance"
        string_val: "VDSR/Conv_14/weights"
        string_val: "VDSR/Conv_14/biases"
        string_val: "VDSR/BatchNorm_14/beta"
        string_val: "VDSR/BatchNorm_14/gamma"
        string_val: "VDSR/BatchNorm_14/moving_mean"
        string_val: "VDSR/BatchNorm_14/moving_variance"
        string_val: "VDSR/Conv_15/weights"
        string_val: "VDSR/Conv_15/biases"
        string_val: "VDSR/BatchNorm_15/beta"
        string_val: "VDSR/BatchNorm_15/gamma"
        string_val: "VDSR/BatchNorm_15/moving_mean"
        string_val: "VDSR/BatchNorm_15/moving_variance"
        string_val: "VDSR/Conv_16/weights"
        string_val: "VDSR/Conv_16/biases"
        string_val: "VDSR/BatchNorm_16/beta"
        string_val: "VDSR/BatchNorm_16/gamma"
        string_val: "VDSR/BatchNorm_16/moving_mean"
        string_val: "VDSR/BatchNorm_16/moving_variance"
        string_val: "VDSR/Conv_17/weights"
        string_val: "VDSR/Conv_17/biases"
        string_val: "VDSR/BatchNorm_17/beta"
        string_val: "VDSR/BatchNorm_17/gamma"
        string_val: "VDSR/BatchNorm_17/moving_mean"
        string_val: "VDSR/BatchNorm_17/moving_variance"
        string_val: "VDSR/Conv_18/weights"
        string_val: "VDSR/Conv_18/biases"
        string_val: "VDSR/BatchNorm_18/beta"
        string_val: "VDSR/BatchNorm_18/gamma"
        string_val: "VDSR/BatchNorm_18/moving_mean"
        string_val: "VDSR/BatchNorm_18/moving_variance"
        string_val: "VDSR/Conv_19/weights"
        string_val: "VDSR/Conv_19/biases"
        string_val: "VDSR/BatchNorm_19/beta"
        string_val: "VDSR/BatchNorm_19/gamma"
        string_val: "VDSR/BatchNorm_19/moving_mean"
        string_val: "VDSR/BatchNorm_19/moving_variance"
        string_val: "beta1_power"
        string_val: "beta2_power"
        string_val: "VDSR/Conv/weights/Adam"
        string_val: "VDSR/Conv/weights/Adam_1"
        string_val: "VDSR/Conv/biases/Adam"
        string_val: "VDSR/Conv/biases/Adam_1"
        string_val: "VDSR/BatchNorm/beta/Adam"
        string_val: "VDSR/BatchNorm/beta/Adam_1"
        string_val: "VDSR/BatchNorm/gamma/Adam"
        string_val: "VDSR/BatchNorm/gamma/Adam_1"
        string_val: "VDSR/Conv_1/weights/Adam"
        string_val: "VDSR/Conv_1/weights/Adam_1"
        string_val: "VDSR/Conv_1/biases/Adam"
        string_val: "VDSR/Conv_1/biases/Adam_1"
        string_val: "VDSR/BatchNorm_1/beta/Adam"
        string_val: "VDSR/BatchNorm_1/beta/Adam_1"
        string_val: "VDSR/BatchNorm_1/gamma/Adam"
        string_val: "VDSR/BatchNorm_1/gamma/Adam_1"
        string_val: "VDSR/Conv_2/weights/Adam"
        string_val: "VDSR/Conv_2/weights/Adam_1"
        string_val: "VDSR/Conv_2/biases/Adam"
        string_val: "VDSR/Conv_2/biases/Adam_1"
        string_val: "VDSR/BatchNorm_2/beta/Adam"
        string_val: "VDSR/BatchNorm_2/beta/Adam_1"
        string_val: "VDSR/BatchNorm_2/gamma/Adam"
        string_val: "VDSR/BatchNorm_2/gamma/Adam_1"
        string_val: "VDSR/Conv_3/weights/Adam"
        string_val: "VDSR/Conv_3/weights/Adam_1"
        string_val: "VDSR/Conv_3/biases/Adam"
        string_val: "VDSR/Conv_3/biases/Adam_1"
        string_val: "VDSR/BatchNorm_3/beta/Adam"
        string_val: "VDSR/BatchNorm_3/beta/Adam_1"
        string_val: "VDSR/BatchNorm_3/gamma/Adam"
        string_val: "VDSR/BatchNorm_3/gamma/Adam_1"
        string_val: "VDSR/Conv_4/weights/Adam"
        string_val: "VDSR/Conv_4/weights/Adam_1"
        string_val: "VDSR/Conv_4/biases/Adam"
        string_val: "VDSR/Conv_4/biases/Adam_1"
        string_val: "VDSR/BatchNorm_4/beta/Adam"
        string_val: "VDSR/BatchNorm_4/beta/Adam_1"
        string_val: "VDSR/BatchNorm_4/gamma/Adam"
        string_val: "VDSR/BatchNorm_4/gamma/Adam_1"
        string_val: "VDSR/Conv_5/weights/Adam"
        string_val: "VDSR/Conv_5/weights/Adam_1"
        string_val: "VDSR/Conv_5/biases/Adam"
        string_val: "VDSR/Conv_5/biases/Adam_1"
        string_val: "VDSR/BatchNorm_5/beta/Adam"
        string_val: "VDSR/BatchNorm_5/beta/Adam_1"
        string_val: "VDSR/BatchNorm_5/gamma/Adam"
        string_val: "VDSR/BatchNorm_5/gamma/Adam_1"
        string_val: "VDSR/Conv_6/weights/Adam"
        string_val: "VDSR/Conv_6/weights/Adam_1"
        string_val: "VDSR/Conv_6/biases/Adam"
        string_val: "VDSR/Conv_6/biases/Adam_1"
        string_val: "VDSR/BatchNorm_6/beta/Adam"
        string_val: "VDSR/BatchNorm_6/beta/Adam_1"
        string_val: "VDSR/BatchNorm_6/gamma/Adam"
        string_val: "VDSR/BatchNorm_6/gamma/Adam_1"
        string_val: "VDSR/Conv_7/weights/Adam"
        string_val: "VDSR/Conv_7/weights/Adam_1"
        string_val: "VDSR/Conv_7/biases/Adam"
        string_val: "VDSR/Conv_7/biases/Adam_1"
        string_val: "VDSR/BatchNorm_7/beta/Adam"
        string_val: "VDSR/BatchNorm_7/beta/Adam_1"
        string_val: "VDSR/BatchNorm_7/gamma/Adam"
        string_val: "VDSR/BatchNorm_7/gamma/Adam_1"
        string_val: "VDSR/Conv_8/weights/Adam"
        string_val: "VDSR/Conv_8/weights/Adam_1"
        string_val: "VDSR/Conv_8/biases/Adam"
        string_val: "VDSR/Conv_8/biases/Adam_1"
        string_val: "VDSR/BatchNorm_8/beta/Adam"
        string_val: "VDSR/BatchNorm_8/beta/Adam_1"
        string_val: "VDSR/BatchNorm_8/gamma/Adam"
        string_val: "VDSR/BatchNorm_8/gamma/Adam_1"
        string_val: "VDSR/Conv_9/weights/Adam"
        string_val: "VDSR/Conv_9/weights/Adam_1"
        string_val: "VDSR/Conv_9/biases/Adam"
        string_val: "VDSR/Conv_9/biases/Adam_1"
        string_val: "VDSR/BatchNorm_9/beta/Adam"
        string_val: "VDSR/BatchNorm_9/beta/Adam_1"
        string_val: "VDSR/BatchNorm_9/gamma/Adam"
        string_val: "VDSR/BatchNorm_9/gamma/Adam_1"
        string_val: "VDSR/Conv_10/weights/Adam"
        string_val: "VDSR/Conv_10/weights/Adam_1"
        string_val: "VDSR/Conv_10/biases/Adam"
        string_val: "VDSR/Conv_10/biases/Adam_1"
        string_val: "VDSR/BatchNorm_10/beta/Adam"
        string_val: "VDSR/BatchNorm_10/beta/Adam_1"
        string_val: "VDSR/BatchNorm_10/gamma/Adam"
        string_val: "VDSR/BatchNorm_10/gamma/Adam_1"
        string_val: "VDSR/Conv_11/weights/Adam"
        string_val: "VDSR/Conv_11/weights/Adam_1"
        string_val: "VDSR/Conv_11/biases/Adam"
        string_val: "VDSR/Conv_11/biases/Adam_1"
        string_val: "VDSR/BatchNorm_11/beta/Adam"
        string_val: "VDSR/BatchNorm_11/beta/Adam_1"
        string_val: "VDSR/BatchNorm_11/gamma/Adam"
        string_val: "VDSR/BatchNorm_11/gamma/Adam_1"
        string_val: "VDSR/Conv_12/weights/Adam"
        string_val: "VDSR/Conv_12/weights/Adam_1"
        string_val: "VDSR/Conv_12/biases/Adam"
        string_val: "VDSR/Conv_12/biases/Adam_1"
        string_val: "VDSR/BatchNorm_12/beta/Adam"
        string_val: "VDSR/BatchNorm_12/beta/Adam_1"
        string_val: "VDSR/BatchNorm_12/gamma/Adam"
        string_val: "VDSR/BatchNorm_12/gamma/Adam_1"
        string_val: "VDSR/Conv_13/weights/Adam"
        string_val: "VDSR/Conv_13/weights/Adam_1"
        string_val: "VDSR/Conv_13/biases/Adam"
        string_val: "VDSR/Conv_13/biases/Adam_1"
        string_val: "VDSR/BatchNorm_13/beta/Adam"
        string_val: "VDSR/BatchNorm_13/beta/Adam_1"
        string_val: "VDSR/BatchNorm_13/gamma/Adam"
        string_val: "VDSR/BatchNorm_13/gamma/Adam_1"
        string_val: "VDSR/Conv_14/weights/Adam"
        string_val: "VDSR/Conv_14/weights/Adam_1"
        string_val: "VDSR/Conv_14/biases/Adam"
        string_val: "VDSR/Conv_14/biases/Adam_1"
        string_val: "VDSR/BatchNorm_14/beta/Adam"
        string_val: "VDSR/BatchNorm_14/beta/Adam_1"
        string_val: "VDSR/BatchNorm_14/gamma/Adam"
        string_val: "VDSR/BatchNorm_14/gamma/Adam_1"
        string_val: "VDSR/Conv_15/weights/Adam"
        string_val: "VDSR/Conv_15/weights/Adam_1"
        string_val: "VDSR/Conv_15/biases/Adam"
        string_val: "VDSR/Conv_15/biases/Adam_1"
        string_val: "VDSR/BatchNorm_15/beta/Adam"
        string_val: "VDSR/BatchNorm_15/beta/Adam_1"
        string_val: "VDSR/BatchNorm_15/gamma/Adam"
        string_val: "VDSR/BatchNorm_15/gamma/Adam_1"
        string_val: "VDSR/Conv_16/weights/Adam"
        string_val: "VDSR/Conv_16/weights/Adam_1"
        string_val: "VDSR/Conv_16/biases/Adam"
        string_val: "VDSR/Conv_16/biases/Adam_1"
        string_val: "VDSR/BatchNorm_16/beta/Adam"
        string_val: "VDSR/BatchNorm_16/beta/Adam_1"
        string_val: "VDSR/BatchNorm_16/gamma/Adam"
        string_val: "VDSR/BatchNorm_16/gamma/Adam_1"
        string_val: "VDSR/Conv_17/weights/Adam"
        string_val: "VDSR/Conv_17/weights/Adam_1"
        string_val: "VDSR/Conv_17/biases/Adam"
        string_val: "VDSR/Conv_17/biases/Adam_1"
        string_val: "VDSR/BatchNorm_17/beta/Adam"
        string_val: "VDSR/BatchNorm_17/beta/Adam_1"
        string_val: "VDSR/BatchNorm_17/gamma/Adam"
        string_val: "VDSR/BatchNorm_17/gamma/Adam_1"
        string_val: "VDSR/Conv_18/weights/Adam"
        string_val: "VDSR/Conv_18/weights/Adam_1"
        string_val: "VDSR/Conv_18/biases/Adam"
        string_val: "VDSR/Conv_18/biases/Adam_1"
        string_val: "VDSR/BatchNorm_18/beta/Adam"
        string_val: "VDSR/BatchNorm_18/beta/Adam_1"
        string_val: "VDSR/BatchNorm_18/gamma/Adam"
        string_val: "VDSR/BatchNorm_18/gamma/Adam_1"
        string_val: "VDSR/Conv_19/weights/Adam"
        string_val: "VDSR/Conv_19/weights/Adam_1"
        string_val: "VDSR/Conv_19/biases/Adam"
        string_val: "VDSR/Conv_19/biases/Adam_1"
        string_val: "VDSR/BatchNorm_19/beta/Adam"
        string_val: "VDSR/BatchNorm_19/beta/Adam_1"
        string_val: "VDSR/BatchNorm_19/gamma/Adam"
        string_val: "VDSR/BatchNorm_19/gamma/Adam_1"
      }
    }
  }
}
node {
  name: "report_uninitialized_variables/boolean_mask/Shape"
  op: "Const"
  device: "/device:CPU:0"
  attr {
    key: "_output_shapes"
    value {
      list {
        shape {
          dim {
            size: 1
          }
        }
      }
    }
  }
  attr {
    key: "dtype"
    value {
      type: DT_INT32
    }
  }
  attr {
    key: "value"
    value {
      tensor {
        dtype: DT_INT32
        tensor_shape {
          dim {
            size: 1
          }
        }
        int_val: 284
      }
    }
  }
}
node {
  name: "report_uninitialized_variables/boolean_mask/strided_slice/stack"
  op: "Const"
  device: "/device:CPU:0"
  attr {
    key: "_output_shapes"
    value {
      list {
        shape {
          dim {
            size: 1
          }
        }
      }
    }
  }
  attr {
    key: "dtype"
    value {
      type: DT_INT32
    }
  }
  attr {
    key: "value"
    value {
      tensor {
        dtype: DT_INT32
        tensor_shape {
          dim {
            size: 1
          }
        }
        int_val: 0
      }
    }
  }
}
node {
  name: "report_uninitialized_variables/boolean_mask/strided_slice/stack_1"
  op: "Const"
  device: "/device:CPU:0"
  attr {
    key: "_output_shapes"
    value {
      list {
        shape {
          dim {
            size: 1
          }
        }
      }
    }
  }
  attr {
    key: "dtype"
    value {
      type: DT_INT32
    }
  }
  attr {
    key: "value"
    value {
      tensor {
        dtype: DT_INT32
        tensor_shape {
          dim {
            size: 1
          }
        }
        int_val: 1
      }
    }
  }
}
node {
  name: "report_uninitialized_variables/boolean_mask/strided_slice/stack_2"
  op: "Const"
  device: "/device:CPU:0"
  attr {
    key: "_output_shapes"
    value {
      list {
        shape {
          dim {
            size: 1
          }
        }
      }
    }
  }
  attr {
    key: "dtype"
    value {
      type: DT_INT32
    }
  }
  attr {
    key: "value"
    value {
      tensor {
        dtype: DT_INT32
        tensor_shape {
          dim {
            size: 1
          }
        }
        int_val: 1
      }
    }
  }
}
node {
  name: "report_uninitialized_variables/boolean_mask/strided_slice"
  op: "StridedSlice"
  input: "report_uninitialized_variables/boolean_mask/Shape"
  input: "report_uninitialized_variables/boolean_mask/strided_slice/stack"
  input: "report_uninitialized_variables/boolean_mask/strided_slice/stack_1"
  input: "report_uninitialized_variables/boolean_mask/strided_slice/stack_2"
  device: "/device:CPU:0"
  attr {
    key: "Index"
    value {
      type: DT_INT32
    }
  }
  attr {
    key: "T"
    value {
      type: DT_INT32
    }
  }
  attr {
    key: "_output_shapes"
    value {
      list {
        shape {
          dim {
            size: 1
          }
        }
      }
    }
  }
  attr {
    key: "begin_mask"
    value {
      i: 0
    }
  }
  attr {
    key: "ellipsis_mask"
    value {
      i: 0
    }
  }
  attr {
    key: "end_mask"
    value {
      i: 0
    }
  }
  attr {
    key: "new_axis_mask"
    value {
      i: 0
    }
  }
  attr {
    key: "shrink_axis_mask"
    value {
      i: 0
    }
  }
}
node {
  name: "report_uninitialized_variables/boolean_mask/Prod/reduction_indices"
  op: "Const"
  device: "/device:CPU:0"
  attr {
    key: "_output_shapes"
    value {
      list {
        shape {
          dim {
            size: 1
          }
        }
      }
    }
  }
  attr {
    key: "dtype"
    value {
      type: DT_INT32
    }
  }
  attr {
    key: "value"
    value {
      tensor {
        dtype: DT_INT32
        tensor_shape {
          dim {
            size: 1
          }
        }
        int_val: 0
      }
    }
  }
}
node {
  name: "report_uninitialized_variables/boolean_mask/Prod"
  op: "Prod"
  input: "report_uninitialized_variables/boolean_mask/strided_slice"
  input: "report_uninitialized_variables/boolean_mask/Prod/reduction_indices"
  device: "/device:CPU:0"
  attr {
    key: "T"
    value {
      type: DT_INT32
    }
  }
  attr {
    key: "Tidx"
    value {
      type: DT_INT32
    }
  }
  attr {
    key: "_output_shapes"
    value {
      list {
        shape {
        }
      }
    }
  }
  attr {
    key: "keep_dims"
    value {
      b: false
    }
  }
}
node {
  name: "report_uninitialized_variables/boolean_mask/Shape_1"
  op: "Const"
  device: "/device:CPU:0"
  attr {
    key: "_output_shapes"
    value {
      list {
        shape {
          dim {
            size: 1
          }
        }
      }
    }
  }
  attr {
    key: "dtype"
    value {
      type: DT_INT32
    }
  }
  attr {
    key: "value"
    value {
      tensor {
        dtype: DT_INT32
        tensor_shape {
          dim {
            size: 1
          }
        }
        int_val: 284
      }
    }
  }
}
node {
  name: "report_uninitialized_variables/boolean_mask/strided_slice_1/stack"
  op: "Const"
  device: "/device:CPU:0"
  attr {
    key: "_output_shapes"
    value {
      list {
        shape {
          dim {
            size: 1
          }
        }
      }
    }
  }
  attr {
    key: "dtype"
    value {
      type: DT_INT32
    }
  }
  attr {
    key: "value"
    value {
      tensor {
        dtype: DT_INT32
        tensor_shape {
          dim {
            size: 1
          }
        }
        int_val: 0
      }
    }
  }
}
node {
  name: "report_uninitialized_variables/boolean_mask/strided_slice_1/stack_1"
  op: "Const"
  device: "/device:CPU:0"
  attr {
    key: "_output_shapes"
    value {
      list {
        shape {
          dim {
            size: 1
          }
        }
      }
    }
  }
  attr {
    key: "dtype"
    value {
      type: DT_INT32
    }
  }
  attr {
    key: "value"
    value {
      tensor {
        dtype: DT_INT32
        tensor_shape {
          dim {
            size: 1
          }
        }
        int_val: 0
      }
    }
  }
}
node {
  name: "report_uninitialized_variables/boolean_mask/strided_slice_1/stack_2"
  op: "Const"
  device: "/device:CPU:0"
  attr {
    key: "_output_shapes"
    value {
      list {
        shape {
          dim {
            size: 1
          }
        }
      }
    }
  }
  attr {
    key: "dtype"
    value {
      type: DT_INT32
    }
  }
  attr {
    key: "value"
    value {
      tensor {
        dtype: DT_INT32
        tensor_shape {
          dim {
            size: 1
          }
        }
        int_val: 1
      }
    }
  }
}
node {
  name: "report_uninitialized_variables/boolean_mask/strided_slice_1"
  op: "StridedSlice"
  input: "report_uninitialized_variables/boolean_mask/Shape_1"
  input: "report_uninitialized_variables/boolean_mask/strided_slice_1/stack"
  input: "report_uninitialized_variables/boolean_mask/strided_slice_1/stack_1"
  input: "report_uninitialized_variables/boolean_mask/strided_slice_1/stack_2"
  device: "/device:CPU:0"
  attr {
    key: "Index"
    value {
      type: DT_INT32
    }
  }
  attr {
    key: "T"
    value {
      type: DT_INT32
    }
  }
  attr {
    key: "_output_shapes"
    value {
      list {
        shape {
          dim {
          }
        }
      }
    }
  }
  attr {
    key: "begin_mask"
    value {
      i: 1
    }
  }
  attr {
    key: "ellipsis_mask"
    value {
      i: 0
    }
  }
  attr {
    key: "end_mask"
    value {
      i: 0
    }
  }
  attr {
    key: "new_axis_mask"
    value {
      i: 0
    }
  }
  attr {
    key: "shrink_axis_mask"
    value {
      i: 0
    }
  }
}
node {
  name: "report_uninitialized_variables/boolean_mask/Shape_2"
  op: "Const"
  device: "/device:CPU:0"
  attr {
    key: "_output_shapes"
    value {
      list {
        shape {
          dim {
            size: 1
          }
        }
      }
    }
  }
  attr {
    key: "dtype"
    value {
      type: DT_INT32
    }
  }
  attr {
    key: "value"
    value {
      tensor {
        dtype: DT_INT32
        tensor_shape {
          dim {
            size: 1
          }
        }
        int_val: 284
      }
    }
  }
}
node {
  name: "report_uninitialized_variables/boolean_mask/strided_slice_2/stack"
  op: "Const"
  device: "/device:CPU:0"
  attr {
    key: "_output_shapes"
    value {
      list {
        shape {
          dim {
            size: 1
          }
        }
      }
    }
  }
  attr {
    key: "dtype"
    value {
      type: DT_INT32
    }
  }
  attr {
    key: "value"
    value {
      tensor {
        dtype: DT_INT32
        tensor_shape {
          dim {
            size: 1
          }
        }
        int_val: 1
      }
    }
  }
}
node {
  name: "report_uninitialized_variables/boolean_mask/strided_slice_2/stack_1"
  op: "Const"
  device: "/device:CPU:0"
  attr {
    key: "_output_shapes"
    value {
      list {
        shape {
          dim {
            size: 1
          }
        }
      }
    }
  }
  attr {
    key: "dtype"
    value {
      type: DT_INT32
    }
  }
  attr {
    key: "value"
    value {
      tensor {
        dtype: DT_INT32
        tensor_shape {
          dim {
            size: 1
          }
        }
        int_val: 0
      }
    }
  }
}
node {
  name: "report_uninitialized_variables/boolean_mask/strided_slice_2/stack_2"
  op: "Const"
  device: "/device:CPU:0"
  attr {
    key: "_output_shapes"
    value {
      list {
        shape {
          dim {
            size: 1
          }
        }
      }
    }
  }
  attr {
    key: "dtype"
    value {
      type: DT_INT32
    }
  }
  attr {
    key: "value"
    value {
      tensor {
        dtype: DT_INT32
        tensor_shape {
          dim {
            size: 1
          }
        }
        int_val: 1
      }
    }
  }
}
node {
  name: "report_uninitialized_variables/boolean_mask/strided_slice_2"
  op: "StridedSlice"
  input: "report_uninitialized_variables/boolean_mask/Shape_2"
  input: "report_uninitialized_variables/boolean_mask/strided_slice_2/stack"
  input: "report_uninitialized_variables/boolean_mask/strided_slice_2/stack_1"
  input: "report_uninitialized_variables/boolean_mask/strided_slice_2/stack_2"
  device: "/device:CPU:0"
  attr {
    key: "Index"
    value {
      type: DT_INT32
    }
  }
  attr {
    key: "T"
    value {
      type: DT_INT32
    }
  }
  attr {
    key: "_output_shapes"
    value {
      list {
        shape {
          dim {
          }
        }
      }
    }
  }
  attr {
    key: "begin_mask"
    value {
      i: 0
    }
  }
  attr {
    key: "ellipsis_mask"
    value {
      i: 0
    }
  }
  attr {
    key: "end_mask"
    value {
      i: 1
    }
  }
  attr {
    key: "new_axis_mask"
    value {
      i: 0
    }
  }
  attr {
    key: "shrink_axis_mask"
    value {
      i: 0
    }
  }
}
node {
  name: "report_uninitialized_variables/boolean_mask/concat/values_1"
  op: "Pack"
  input: "report_uninitialized_variables/boolean_mask/Prod"
  device: "/device:CPU:0"
  attr {
    key: "N"
    value {
      i: 1
    }
  }
  attr {
    key: "T"
    value {
      type: DT_INT32
    }
  }
  attr {
    key: "_output_shapes"
    value {
      list {
        shape {
          dim {
            size: 1
          }
        }
      }
    }
  }
  attr {
    key: "axis"
    value {
      i: 0
    }
  }
}
node {
  name: "report_uninitialized_variables/boolean_mask/concat/axis"
  op: "Const"
  device: "/device:CPU:0"
  attr {
    key: "_output_shapes"
    value {
      list {
        shape {
        }
      }
    }
  }
  attr {
    key: "dtype"
    value {
      type: DT_INT32
    }
  }
  attr {
    key: "value"
    value {
      tensor {
        dtype: DT_INT32
        tensor_shape {
        }
        int_val: 0
      }
    }
  }
}
node {
  name: "report_uninitialized_variables/boolean_mask/concat"
  op: "ConcatV2"
  input: "report_uninitialized_variables/boolean_mask/strided_slice_1"
  input: "report_uninitialized_variables/boolean_mask/concat/values_1"
  input: "report_uninitialized_variables/boolean_mask/strided_slice_2"
  input: "report_uninitialized_variables/boolean_mask/concat/axis"
  device: "/device:CPU:0"
  attr {
    key: "N"
    value {
      i: 3
    }
  }
  attr {
    key: "T"
    value {
      type: DT_INT32
    }
  }
  attr {
    key: "Tidx"
    value {
      type: DT_INT32
    }
  }
  attr {
    key: "_output_shapes"
    value {
      list {
        shape {
          dim {
            size: 1
          }
        }
      }
    }
  }
}
node {
  name: "report_uninitialized_variables/boolean_mask/Reshape"
  op: "Reshape"
  input: "report_uninitialized_variables/Const"
  input: "report_uninitialized_variables/boolean_mask/concat"
  device: "/device:CPU:0"
  attr {
    key: "T"
    value {
      type: DT_STRING
    }
  }
  attr {
    key: "Tshape"
    value {
      type: DT_INT32
    }
  }
  attr {
    key: "_output_shapes"
    value {
      list {
        shape {
          dim {
            size: 284
          }
        }
      }
    }
  }
}
node {
  name: "report_uninitialized_variables/boolean_mask/Reshape_1/shape"
  op: "Const"
  device: "/device:CPU:0"
  attr {
    key: "_output_shapes"
    value {
      list {
        shape {
          dim {
            size: 1
          }
        }
      }
    }
  }
  attr {
    key: "dtype"
    value {
      type: DT_INT32
    }
  }
  attr {
    key: "value"
    value {
      tensor {
        dtype: DT_INT32
        tensor_shape {
          dim {
            size: 1
          }
        }
        int_val: -1
      }
    }
  }
}
node {
  name: "report_uninitialized_variables/boolean_mask/Reshape_1"
  op: "Reshape"
  input: "report_uninitialized_variables/LogicalNot"
  input: "report_uninitialized_variables/boolean_mask/Reshape_1/shape"
  device: "/device:CPU:0"
  attr {
    key: "T"
    value {
      type: DT_BOOL
    }
  }
  attr {
    key: "Tshape"
    value {
      type: DT_INT32
    }
  }
  attr {
    key: "_output_shapes"
    value {
      list {
        shape {
          dim {
            size: 284
          }
        }
      }
    }
  }
}
node {
  name: "report_uninitialized_variables/boolean_mask/Where"
  op: "Where"
  input: "report_uninitialized_variables/boolean_mask/Reshape_1"
  device: "/device:CPU:0"
  attr {
    key: "T"
    value {
      type: DT_BOOL
    }
  }
  attr {
    key: "_output_shapes"
    value {
      list {
        shape {
          dim {
            size: -1
          }
          dim {
            size: 1
          }
        }
      }
    }
  }
}
node {
  name: "report_uninitialized_variables/boolean_mask/Squeeze"
  op: "Squeeze"
  input: "report_uninitialized_variables/boolean_mask/Where"
  device: "/device:CPU:0"
  attr {
    key: "T"
    value {
      type: DT_INT64
    }
  }
  attr {
    key: "_output_shapes"
    value {
      list {
        shape {
          dim {
            size: -1
          }
        }
      }
    }
  }
  attr {
    key: "squeeze_dims"
    value {
      list {
        i: 1
      }
    }
  }
}
node {
  name: "report_uninitialized_variables/boolean_mask/GatherV2/axis"
  op: "Const"
  device: "/device:CPU:0"
  attr {
    key: "_output_shapes"
    value {
      list {
        shape {
        }
      }
    }
  }
  attr {
    key: "dtype"
    value {
      type: DT_INT32
    }
  }
  attr {
    key: "value"
    value {
      tensor {
        dtype: DT_INT32
        tensor_shape {
        }
        int_val: 0
      }
    }
  }
}
node {
  name: "report_uninitialized_variables/boolean_mask/GatherV2"
  op: "GatherV2"
  input: "report_uninitialized_variables/boolean_mask/Reshape"
  input: "report_uninitialized_variables/boolean_mask/Squeeze"
  input: "report_uninitialized_variables/boolean_mask/GatherV2/axis"
  device: "/device:CPU:0"
  attr {
    key: "Taxis"
    value {
      type: DT_INT32
    }
  }
  attr {
    key: "Tindices"
    value {
      type: DT_INT64
    }
  }
  attr {
    key: "Tparams"
    value {
      type: DT_STRING
    }
  }
  attr {
    key: "_output_shapes"
    value {
      list {
        shape {
          dim {
            size: -1
          }
        }
      }
    }
  }
  attr {
    key: "batch_dims"
    value {
      i: 0
    }
  }
}
node {
  name: "init"
  op: "NoOp"
  input: "^VDSR/BatchNorm/beta/Adam/Assign"
  input: "^VDSR/BatchNorm/beta/Adam_1/Assign"
  input: "^VDSR/BatchNorm/beta/Assign"
  input: "^VDSR/BatchNorm/gamma/Adam/Assign"
  input: "^VDSR/BatchNorm/gamma/Adam_1/Assign"
  input: "^VDSR/BatchNorm/gamma/Assign"
  input: "^VDSR/BatchNorm/moving_mean/Assign"
  input: "^VDSR/BatchNorm/moving_variance/Assign"
  input: "^VDSR/BatchNorm_1/beta/Adam/Assign"
  input: "^VDSR/BatchNorm_1/beta/Adam_1/Assign"
  input: "^VDSR/BatchNorm_1/beta/Assign"
  input: "^VDSR/BatchNorm_1/gamma/Adam/Assign"
  input: "^VDSR/BatchNorm_1/gamma/Adam_1/Assign"
  input: "^VDSR/BatchNorm_1/gamma/Assign"
  input: "^VDSR/BatchNorm_1/moving_mean/Assign"
  input: "^VDSR/BatchNorm_1/moving_variance/Assign"
  input: "^VDSR/BatchNorm_10/beta/Adam/Assign"
  input: "^VDSR/BatchNorm_10/beta/Adam_1/Assign"
  input: "^VDSR/BatchNorm_10/beta/Assign"
  input: "^VDSR/BatchNorm_10/gamma/Adam/Assign"
  input: "^VDSR/BatchNorm_10/gamma/Adam_1/Assign"
  input: "^VDSR/BatchNorm_10/gamma/Assign"
  input: "^VDSR/BatchNorm_10/moving_mean/Assign"
  input: "^VDSR/BatchNorm_10/moving_variance/Assign"
  input: "^VDSR/BatchNorm_11/beta/Adam/Assign"
  input: "^VDSR/BatchNorm_11/beta/Adam_1/Assign"
  input: "^VDSR/BatchNorm_11/beta/Assign"
  input: "^VDSR/BatchNorm_11/gamma/Adam/Assign"
  input: "^VDSR/BatchNorm_11/gamma/Adam_1/Assign"
  input: "^VDSR/BatchNorm_11/gamma/Assign"
  input: "^VDSR/BatchNorm_11/moving_mean/Assign"
  input: "^VDSR/BatchNorm_11/moving_variance/Assign"
  input: "^VDSR/BatchNorm_12/beta/Adam/Assign"
  input: "^VDSR/BatchNorm_12/beta/Adam_1/Assign"
  input: "^VDSR/BatchNorm_12/beta/Assign"
  input: "^VDSR/BatchNorm_12/gamma/Adam/Assign"
  input: "^VDSR/BatchNorm_12/gamma/Adam_1/Assign"
  input: "^VDSR/BatchNorm_12/gamma/Assign"
  input: "^VDSR/BatchNorm_12/moving_mean/Assign"
  input: "^VDSR/BatchNorm_12/moving_variance/Assign"
  input: "^VDSR/BatchNorm_13/beta/Adam/Assign"
  input: "^VDSR/BatchNorm_13/beta/Adam_1/Assign"
  input: "^VDSR/BatchNorm_13/beta/Assign"
  input: "^VDSR/BatchNorm_13/gamma/Adam/Assign"
  input: "^VDSR/BatchNorm_13/gamma/Adam_1/Assign"
  input: "^VDSR/BatchNorm_13/gamma/Assign"
  input: "^VDSR/BatchNorm_13/moving_mean/Assign"
  input: "^VDSR/BatchNorm_13/moving_variance/Assign"
  input: "^VDSR/BatchNorm_14/beta/Adam/Assign"
  input: "^VDSR/BatchNorm_14/beta/Adam_1/Assign"
  input: "^VDSR/BatchNorm_14/beta/Assign"
  input: "^VDSR/BatchNorm_14/gamma/Adam/Assign"
  input: "^VDSR/BatchNorm_14/gamma/Adam_1/Assign"
  input: "^VDSR/BatchNorm_14/gamma/Assign"
  input: "^VDSR/BatchNorm_14/moving_mean/Assign"
  input: "^VDSR/BatchNorm_14/moving_variance/Assign"
  input: "^VDSR/BatchNorm_15/beta/Adam/Assign"
  input: "^VDSR/BatchNorm_15/beta/Adam_1/Assign"
  input: "^VDSR/BatchNorm_15/beta/Assign"
  input: "^VDSR/BatchNorm_15/gamma/Adam/Assign"
  input: "^VDSR/BatchNorm_15/gamma/Adam_1/Assign"
  input: "^VDSR/BatchNorm_15/gamma/Assign"
  input: "^VDSR/BatchNorm_15/moving_mean/Assign"
  input: "^VDSR/BatchNorm_15/moving_variance/Assign"
  input: "^VDSR/BatchNorm_16/beta/Adam/Assign"
  input: "^VDSR/BatchNorm_16/beta/Adam_1/Assign"
  input: "^VDSR/BatchNorm_16/beta/Assign"
  input: "^VDSR/BatchNorm_16/gamma/Adam/Assign"
  input: "^VDSR/BatchNorm_16/gamma/Adam_1/Assign"
  input: "^VDSR/BatchNorm_16/gamma/Assign"
  input: "^VDSR/BatchNorm_16/moving_mean/Assign"
  input: "^VDSR/BatchNorm_16/moving_variance/Assign"
  input: "^VDSR/BatchNorm_17/beta/Adam/Assign"
  input: "^VDSR/BatchNorm_17/beta/Adam_1/Assign"
  input: "^VDSR/BatchNorm_17/beta/Assign"
  input: "^VDSR/BatchNorm_17/gamma/Adam/Assign"
  input: "^VDSR/BatchNorm_17/gamma/Adam_1/Assign"
  input: "^VDSR/BatchNorm_17/gamma/Assign"
  input: "^VDSR/BatchNorm_17/moving_mean/Assign"
  input: "^VDSR/BatchNorm_17/moving_variance/Assign"
  input: "^VDSR/BatchNorm_18/beta/Adam/Assign"
  input: "^VDSR/BatchNorm_18/beta/Adam_1/Assign"
  input: "^VDSR/BatchNorm_18/beta/Assign"
  input: "^VDSR/BatchNorm_18/gamma/Adam/Assign"
  input: "^VDSR/BatchNorm_18/gamma/Adam_1/Assign"
  input: "^VDSR/BatchNorm_18/gamma/Assign"
  input: "^VDSR/BatchNorm_18/moving_mean/Assign"
  input: "^VDSR/BatchNorm_18/moving_variance/Assign"
  input: "^VDSR/BatchNorm_19/beta/Adam/Assign"
  input: "^VDSR/BatchNorm_19/beta/Adam_1/Assign"
  input: "^VDSR/BatchNorm_19/beta/Assign"
  input: "^VDSR/BatchNorm_19/gamma/Adam/Assign"
  input: "^VDSR/BatchNorm_19/gamma/Adam_1/Assign"
  input: "^VDSR/BatchNorm_19/gamma/Assign"
  input: "^VDSR/BatchNorm_19/moving_mean/Assign"
  input: "^VDSR/BatchNorm_19/moving_variance/Assign"
  input: "^VDSR/BatchNorm_2/beta/Adam/Assign"
  input: "^VDSR/BatchNorm_2/beta/Adam_1/Assign"
  input: "^VDSR/BatchNorm_2/beta/Assign"
  input: "^VDSR/BatchNorm_2/gamma/Adam/Assign"
  input: "^VDSR/BatchNorm_2/gamma/Adam_1/Assign"
  input: "^VDSR/BatchNorm_2/gamma/Assign"
  input: "^VDSR/BatchNorm_2/moving_mean/Assign"
  input: "^VDSR/BatchNorm_2/moving_variance/Assign"
  input: "^VDSR/BatchNorm_3/beta/Adam/Assign"
  input: "^VDSR/BatchNorm_3/beta/Adam_1/Assign"
  input: "^VDSR/BatchNorm_3/beta/Assign"
  input: "^VDSR/BatchNorm_3/gamma/Adam/Assign"
  input: "^VDSR/BatchNorm_3/gamma/Adam_1/Assign"
  input: "^VDSR/BatchNorm_3/gamma/Assign"
  input: "^VDSR/BatchNorm_3/moving_mean/Assign"
  input: "^VDSR/BatchNorm_3/moving_variance/Assign"
  input: "^VDSR/BatchNorm_4/beta/Adam/Assign"
  input: "^VDSR/BatchNorm_4/beta/Adam_1/Assign"
  input: "^VDSR/BatchNorm_4/beta/Assign"
  input: "^VDSR/BatchNorm_4/gamma/Adam/Assign"
  input: "^VDSR/BatchNorm_4/gamma/Adam_1/Assign"
  input: "^VDSR/BatchNorm_4/gamma/Assign"
  input: "^VDSR/BatchNorm_4/moving_mean/Assign"
  input: "^VDSR/BatchNorm_4/moving_variance/Assign"
  input: "^VDSR/BatchNorm_5/beta/Adam/Assign"
  input: "^VDSR/BatchNorm_5/beta/Adam_1/Assign"
  input: "^VDSR/BatchNorm_5/beta/Assign"
  input: "^VDSR/BatchNorm_5/gamma/Adam/Assign"
  input: "^VDSR/BatchNorm_5/gamma/Adam_1/Assign"
  input: "^VDSR/BatchNorm_5/gamma/Assign"
  input: "^VDSR/BatchNorm_5/moving_mean/Assign"
  input: "^VDSR/BatchNorm_5/moving_variance/Assign"
  input: "^VDSR/BatchNorm_6/beta/Adam/Assign"
  input: "^VDSR/BatchNorm_6/beta/Adam_1/Assign"
  input: "^VDSR/BatchNorm_6/beta/Assign"
  input: "^VDSR/BatchNorm_6/gamma/Adam/Assign"
  input: "^VDSR/BatchNorm_6/gamma/Adam_1/Assign"
  input: "^VDSR/BatchNorm_6/gamma/Assign"
  input: "^VDSR/BatchNorm_6/moving_mean/Assign"
  input: "^VDSR/BatchNorm_6/moving_variance/Assign"
  input: "^VDSR/BatchNorm_7/beta/Adam/Assign"
  input: "^VDSR/BatchNorm_7/beta/Adam_1/Assign"
  input: "^VDSR/BatchNorm_7/beta/Assign"
  input: "^VDSR/BatchNorm_7/gamma/Adam/Assign"
  input: "^VDSR/BatchNorm_7/gamma/Adam_1/Assign"
  input: "^VDSR/BatchNorm_7/gamma/Assign"
  input: "^VDSR/BatchNorm_7/moving_mean/Assign"
  input: "^VDSR/BatchNorm_7/moving_variance/Assign"
  input: "^VDSR/BatchNorm_8/beta/Adam/Assign"
  input: "^VDSR/BatchNorm_8/beta/Adam_1/Assign"
  input: "^VDSR/BatchNorm_8/beta/Assign"
  input: "^VDSR/BatchNorm_8/gamma/Adam/Assign"
  input: "^VDSR/BatchNorm_8/gamma/Adam_1/Assign"
  input: "^VDSR/BatchNorm_8/gamma/Assign"
  input: "^VDSR/BatchNorm_8/moving_mean/Assign"
  input: "^VDSR/BatchNorm_8/moving_variance/Assign"
  input: "^VDSR/BatchNorm_9/beta/Adam/Assign"
  input: "^VDSR/BatchNorm_9/beta/Adam_1/Assign"
  input: "^VDSR/BatchNorm_9/beta/Assign"
  input: "^VDSR/BatchNorm_9/gamma/Adam/Assign"
  input: "^VDSR/BatchNorm_9/gamma/Adam_1/Assign"
  input: "^VDSR/BatchNorm_9/gamma/Assign"
  input: "^VDSR/BatchNorm_9/moving_mean/Assign"
  input: "^VDSR/BatchNorm_9/moving_variance/Assign"
  input: "^VDSR/Conv/biases/Adam/Assign"
  input: "^VDSR/Conv/biases/Adam_1/Assign"
  input: "^VDSR/Conv/biases/Assign"
  input: "^VDSR/Conv/weights/Adam/Assign"
  input: "^VDSR/Conv/weights/Adam_1/Assign"
  input: "^VDSR/Conv/weights/Assign"
  input: "^VDSR/Conv_1/biases/Adam/Assign"
  input: "^VDSR/Conv_1/biases/Adam_1/Assign"
  input: "^VDSR/Conv_1/biases/Assign"
  input: "^VDSR/Conv_1/weights/Adam/Assign"
  input: "^VDSR/Conv_1/weights/Adam_1/Assign"
  input: "^VDSR/Conv_1/weights/Assign"
  input: "^VDSR/Conv_10/biases/Adam/Assign"
  input: "^VDSR/Conv_10/biases/Adam_1/Assign"
  input: "^VDSR/Conv_10/biases/Assign"
  input: "^VDSR/Conv_10/weights/Adam/Assign"
  input: "^VDSR/Conv_10/weights/Adam_1/Assign"
  input: "^VDSR/Conv_10/weights/Assign"
  input: "^VDSR/Conv_11/biases/Adam/Assign"
  input: "^VDSR/Conv_11/biases/Adam_1/Assign"
  input: "^VDSR/Conv_11/biases/Assign"
  input: "^VDSR/Conv_11/weights/Adam/Assign"
  input: "^VDSR/Conv_11/weights/Adam_1/Assign"
  input: "^VDSR/Conv_11/weights/Assign"
  input: "^VDSR/Conv_12/biases/Adam/Assign"
  input: "^VDSR/Conv_12/biases/Adam_1/Assign"
  input: "^VDSR/Conv_12/biases/Assign"
  input: "^VDSR/Conv_12/weights/Adam/Assign"
  input: "^VDSR/Conv_12/weights/Adam_1/Assign"
  input: "^VDSR/Conv_12/weights/Assign"
  input: "^VDSR/Conv_13/biases/Adam/Assign"
  input: "^VDSR/Conv_13/biases/Adam_1/Assign"
  input: "^VDSR/Conv_13/biases/Assign"
  input: "^VDSR/Conv_13/weights/Adam/Assign"
  input: "^VDSR/Conv_13/weights/Adam_1/Assign"
  input: "^VDSR/Conv_13/weights/Assign"
  input: "^VDSR/Conv_14/biases/Adam/Assign"
  input: "^VDSR/Conv_14/biases/Adam_1/Assign"
  input: "^VDSR/Conv_14/biases/Assign"
  input: "^VDSR/Conv_14/weights/Adam/Assign"
  input: "^VDSR/Conv_14/weights/Adam_1/Assign"
  input: "^VDSR/Conv_14/weights/Assign"
  input: "^VDSR/Conv_15/biases/Adam/Assign"
  input: "^VDSR/Conv_15/biases/Adam_1/Assign"
  input: "^VDSR/Conv_15/biases/Assign"
  input: "^VDSR/Conv_15/weights/Adam/Assign"
  input: "^VDSR/Conv_15/weights/Adam_1/Assign"
  input: "^VDSR/Conv_15/weights/Assign"
  input: "^VDSR/Conv_16/biases/Adam/Assign"
  input: "^VDSR/Conv_16/biases/Adam_1/Assign"
  input: "^VDSR/Conv_16/biases/Assign"
  input: "^VDSR/Conv_16/weights/Adam/Assign"
  input: "^VDSR/Conv_16/weights/Adam_1/Assign"
  input: "^VDSR/Conv_16/weights/Assign"
  input: "^VDSR/Conv_17/biases/Adam/Assign"
  input: "^VDSR/Conv_17/biases/Adam_1/Assign"
  input: "^VDSR/Conv_17/biases/Assign"
  input: "^VDSR/Conv_17/weights/Adam/Assign"
  input: "^VDSR/Conv_17/weights/Adam_1/Assign"
  input: "^VDSR/Conv_17/weights/Assign"
  input: "^VDSR/Conv_18/biases/Adam/Assign"
  input: "^VDSR/Conv_18/biases/Adam_1/Assign"
  input: "^VDSR/Conv_18/biases/Assign"
  input: "^VDSR/Conv_18/weights/Adam/Assign"
  input: "^VDSR/Conv_18/weights/Adam_1/Assign"
  input: "^VDSR/Conv_18/weights/Assign"
  input: "^VDSR/Conv_19/biases/Adam/Assign"
  input: "^VDSR/Conv_19/biases/Adam_1/Assign"
  input: "^VDSR/Conv_19/biases/Assign"
  input: "^VDSR/Conv_19/weights/Adam/Assign"
  input: "^VDSR/Conv_19/weights/Adam_1/Assign"
  input: "^VDSR/Conv_19/weights/Assign"
  input: "^VDSR/Conv_2/biases/Adam/Assign"
  input: "^VDSR/Conv_2/biases/Adam_1/Assign"
  input: "^VDSR/Conv_2/biases/Assign"
  input: "^VDSR/Conv_2/weights/Adam/Assign"
  input: "^VDSR/Conv_2/weights/Adam_1/Assign"
  input: "^VDSR/Conv_2/weights/Assign"
  input: "^VDSR/Conv_3/biases/Adam/Assign"
  input: "^VDSR/Conv_3/biases/Adam_1/Assign"
  input: "^VDSR/Conv_3/biases/Assign"
  input: "^VDSR/Conv_3/weights/Adam/Assign"
  input: "^VDSR/Conv_3/weights/Adam_1/Assign"
  input: "^VDSR/Conv_3/weights/Assign"
  input: "^VDSR/Conv_4/biases/Adam/Assign"
  input: "^VDSR/Conv_4/biases/Adam_1/Assign"
  input: "^VDSR/Conv_4/biases/Assign"
  input: "^VDSR/Conv_4/weights/Adam/Assign"
  input: "^VDSR/Conv_4/weights/Adam_1/Assign"
  input: "^VDSR/Conv_4/weights/Assign"
  input: "^VDSR/Conv_5/biases/Adam/Assign"
  input: "^VDSR/Conv_5/biases/Adam_1/Assign"
  input: "^VDSR/Conv_5/biases/Assign"
  input: "^VDSR/Conv_5/weights/Adam/Assign"
  input: "^VDSR/Conv_5/weights/Adam_1/Assign"
  input: "^VDSR/Conv_5/weights/Assign"
  input: "^VDSR/Conv_6/biases/Adam/Assign"
  input: "^VDSR/Conv_6/biases/Adam_1/Assign"
  input: "^VDSR/Conv_6/biases/Assign"
  input: "^VDSR/Conv_6/weights/Adam/Assign"
  input: "^VDSR/Conv_6/weights/Adam_1/Assign"
  input: "^VDSR/Conv_6/weights/Assign"
  input: "^VDSR/Conv_7/biases/Adam/Assign"
  input: "^VDSR/Conv_7/biases/Adam_1/Assign"
  input: "^VDSR/Conv_7/biases/Assign"
  input: "^VDSR/Conv_7/weights/Adam/Assign"
  input: "^VDSR/Conv_7/weights/Adam_1/Assign"
  input: "^VDSR/Conv_7/weights/Assign"
  input: "^VDSR/Conv_8/biases/Adam/Assign"
  input: "^VDSR/Conv_8/biases/Adam_1/Assign"
  input: "^VDSR/Conv_8/biases/Assign"
  input: "^VDSR/Conv_8/weights/Adam/Assign"
  input: "^VDSR/Conv_8/weights/Adam_1/Assign"
  input: "^VDSR/Conv_8/weights/Assign"
  input: "^VDSR/Conv_9/biases/Adam/Assign"
  input: "^VDSR/Conv_9/biases/Adam_1/Assign"
  input: "^VDSR/Conv_9/biases/Assign"
  input: "^VDSR/Conv_9/weights/Adam/Assign"
  input: "^VDSR/Conv_9/weights/Adam_1/Assign"
  input: "^VDSR/Conv_9/weights/Assign"
  input: "^beta1_power/Assign"
  input: "^beta2_power/Assign"
  input: "^lr/Assign"
  input: "^step/Assign"
}
node {
  name: "init_1"
  op: "NoOp"
}
node {
  name: "init_all_tables"
  op: "NoOp"
}
node {
  name: "group_deps"
  op: "NoOp"
  input: "^init_1"
  input: "^init_all_tables"
}
versions {
  producer: 134
}
